Data-src/cs-a-1.46-phi-2.51/X-theta-2.24.npy (npy, 8128 bytes, 1 tensors)

array f8 [1000]
000000 00 47 d3 9f b2 ca c9 3f 00 48 9a 6b 24 47 8a 3f
       0.20149834445924597 0.012831005605480783
000010 e0 33 ca 31 25 67 ca 3f 20 90 d0 7e b8 7a cf bf
       0.2062727444757959 -0.2459326380932234
000020 a0 a3 65 9d 43 8a c7 3f 20 61 c5 96 3e ca d7 3f
       0.18390698609735256 0.37171902393085254
000030 48 c2 eb 5b ee 77 e3 3f c8 21 05 31 d6 17 f1 bf
       0.6083900256472328 -1.0683195032926154
000040 f0 5b df b6 1c 08 d7 bf 10 ed 88 bc 86 5f e2 bf
       -0.3598701272834992 -0.5741609270402552
000050 8c 32 da c6 30 26 f3 3f 10 66 98 ea fc 4a d1 bf
       1.1968238608998574 -0.27020190152833923
000060 c0 3a 54 ce 0c 82 da bf 80 7a ae 24 e8 f7 aa 3f
       -0.4141876234943247 0.052672628858307924
000070 60 0b cb 53 5c 3f f2 bf 14 37 f4 5e 35 0f f2 3f
       -1.1404689095658895 1.1287130078448557
000080 94 3c 7e 27 a2 0d fc 3f 20 47 bb cf 7b ab d8 3f
       1.7533284704875642 0.3854665306690652
000090 e0 d1 cf d8 b8 57 c2 bf 40 0a 66 91 73 88 d9 3f
       -0.14330206476701246 0.3989533347995895
0000a0 80 4d 03 33 20 aa cf 3f 50 4e d5 be cd 82 e1 3f
       0.24737932673324892 0.5472172476970147
0000b0 c0 4c 02 2a 1e 16 db bf f0 33 bf 9c 53 51 d2 3f
       -0.4232249651187878 0.2862137823802291
0000c0 b8 cd 2d e7 9c 25 ec 3f 20 f9 20 3a 89 15 d2 3f
       0.8795914187634741 0.28256445576325184
0000d0 00 e2 b8 11 85 3f 83 3f 80 39 4c 85 ad 06 ec 3f
       0.009398498156870438 0.875815162989781
0000e0 40 0d e3 0b 8a 71 e2 3f 00 4a ce bd e8 fe 84 bf
       0.5763597709814476 -0.010251825611509169
0000f0 00 e0 15 a3 2b 79 55 bf 40 3e 02 68 60 2d e7 3f
       -0.0013106275694934055 0.7242891341611042
000100 40 07 91 24 7d 08 d6 3f a8 5c a3 d1 4d 27 e4 bf
       0.34426811762761034 -0.6297978491301324
000110 80 62 a0 f1 09 b2 b0 bf 70 89 bb 78 5f a1 e7 bf
       -0.0652166571529822 -0.7384488447244575
000120 00 b3 ad 5e f9 07 cc 3f 00 b9 49 ff fb fb bd 3f
       0.2189933502480912 0.11712622625939062
000130 a0 59 61 6a f1 fb d1 3f 28 ae a4 5c 8a 6b e0 bf
       0.281002382170664 -0.5131274995268926
000140 60 98 f6 79 73 cb d8 3f 20 93 19 0e 2c a2 d0 bf
       0.3874176684424864 -0.25989819886153676
000150 d8 44 49 eb 82 c0 ea bf 88 12 34 67 46 c4 ee bf
       -0.835999927085278 -0.9614593520824011
000160 38 d9 8a 1f 22 f3 ea 3f 00 3a fe b9 85 fd d2 bf
       0.8421793571531344 -0.29672377742181766
000170 60 a2 0e 61 a3 62 d0 3f 60 8c 34 52 39 17 db bf
       0.2560203979324225 -0.42329247501237965
000180 60 0a 80 14 3d fc dc 3f b8 43 3d 66 35 71 ef 3f
       0.4528954220005854 0.9825694081174481
000190 90 95 24 d6 50 34 e9 3f 08 dd 23 3f a8 0c f1 bf
       0.7876362020949035 -1.0655901400003263
0001a0 c0 66 13 d9 16 c4 b1 3f 30 14 11 55 23 23 da 3f
       0.06939833450033017 0.4083946543435699
0001b0 40 be d7 c6 84 bc c7 3f 00 62 27 f8 1c 86 c3 3f
       0.18544063290709012 0.1525303088844936
0001c0 80 a6 3a 20 96 b7 df bf d0 b0 53 a9 6d 16 ed bf
       -0.4955802263963065 -0.9089878375212042
0001d0 48 7f 36 33 62 e9 e7 3f 50 1d b3 bf 3c 88 e0 bf
       0.7472392082454258 -0.5166305297979452
0001e0 00 b2 18 eb d5 09 b2 bf d0 5f 5a da 2d 6e e6 bf
       -0.07046257962856117 -0.700949598761321
0001f0 a0 30 71 7b b8 1f e8 bf 20 88 54 8b 6a d7 cb 3f
       -0.753872147653528 0.21751148036224865
000200 a0 62 8b 6a 3f e9 cc 3f 80 6b 34 2b 7c 73 af bf
       0.22586815550200345 -0.06142795588876648
000210 d0 f2 e8 7a 89 55 f2 bf b0 e8 fa d4 4d 2f d1 bf
       -1.1458830643816107 -0.26851220892752803
000220 a8 e1 c8 25 ab c9 ef bf 40 61 2c dd ca da d6 3f
       -0.9933677423460283 0.3571040305992206
000230 e0 a8 89 14 e4 ef c3 3f 80 7f 93 38 5c 6d c6 bf
       0.1557583904535198 -0.17521240961559315
000240 70 cc 48 92 c0 54 d2 bf e0 65 99 8d e0 fb e3 3f
       -0.2864228657301231 0.6244967237100205
000250 60 79 38 ca 7f a2 c5 3f 40 b8 e9 d0 ac 83 b6 bf
       0.1690215814023288 -0.0879467020074296
000260 00 70 f8 2b 32 8d b5 3f 30 56 8d e7 6c ba e4 bf
       0.08418572972772154 -0.647757007837475
000270 08 41 07 2c 67 57 ee 3f f0 aa cc e4 a4 76 ea 3f
       0.9481693134239615 0.826982924341193
000280 70 c1 e3 f5 d4 37 df bf b0 09 ac fc a5 df df 3f
       -0.4877827073351204 0.4980254142284606
000290 e0 2a f2 73 4a c3 e3 bf 30 b4 e9 1a 08 8c d6 3f
       -0.6175892128533995 0.35229685428822943
0002a0 b8 dc d3 71 30 ba e2 3f 20 90 20 e7 3e 31 c1 3f
       0.5852281783289959 0.13431535993106625
0002b0 c8 2d fc c4 15 5a e0 bf d0 bf 8d 12 c9 f4 db bf
       -0.510996708618614 -0.4368155175388866
0002c0 40 b2 89 2f a6 69 cb bf 40 e3 8e 78 18 24 e8 3f
       -0.21416165658173902 0.7544061998988596
0002d0 90 5c 7f 45 32 50 e2 3f e0 f4 45 9e c0 7b c4 bf
       0.5722895963071029 -0.16002662399470235
0002e0 80 44 33 c8 ac 87 a9 3f 98 ca a4 51 1b 2b ee 3f
       0.049863242567547594 0.9427620501140437
0002f0 70 9c 3b 18 01 a6 d7 3f 20 12 bf d2 d1 06 d4 3f
       0.36950709692468475 0.3129162366933844
000300 c0 5a 3e 2d d0 c3 d7 3f 38 90 21 2c fa aa e5 bf
       0.3713264886695633 -0.6771212446151429
000310 c0 e7 2b f8 c4 5b f0 3f 80 2c 58 d4 bf 2c e5 3f
       1.0224046415519155 0.6617125651695375
000320 c8 d1 59 1b c2 d3 ec 3f a0 64 b6 12 d0 10 c2 bf
       0.900849393291133 -0.1411380854959008
000330 00 50 93 1e 0b 9a 9c bf 80 37 a8 3a ed fe c8 bf
       -0.027931379071404194 -0.19527974475971277
000340 a0 35 84 31 62 3c cf 3f 90 1c a1 a2 cf 43 d7 bf
       0.24403026025576668 -0.3635138595750016
000350 48 b1 2e 7a f1 79 f0 bf 80 aa 87 6a 0f c8 ad bf
       -1.0297713063001357 -0.05816696334280369
000360 d0 6c 87 c1 24 9f d2 3f 24 ba 17 df 14 81 f2 3f
       0.290963353150528 1.1565140451963396
000370 00 f7 59 b8 6b 80 d8 bf b0 0b a9 50 54 5a ed 3f
       -0.3828381824786078 0.91727653268787
000380 50 b8 ce 24 15 13 e9 bf c8 9e aa a0 28 86 f2 3f
       -0.7835794180771334 1.1577535892519553
000390 80 df 39 5f da f8 a7 bf f8 5c c7 69 0f 92 e4 3f
       -0.046820472835803706 0.6428296152106716
0003a0 20 37 96 9d 1c 60 c5 bf 00 84 67 ca c6 95 79 bf
       -0.16699559874216963 -0.006246353650994685
0003b0 34 04 ee 87 28 c9 f3 bf e0 0a eb 6f 33 e8 c1 bf
       -1.2366109189754413 -0.13989870991470976
0003c0 b8 20 00 ae 4a fd e4 3f 00 ad 3b 4b 7c 22 a0 bf
       0.6559193991133929 -0.031513103660325115
0003d0 e8 66 55 98 ad 0f ee 3f a0 fc 88 4c be 14 e0 bf
       0.939413831259313 -0.5025321478678002
0003e0 60 48 39 88 61 58 ca bf 80 16 40 33 90 ae d9 bf
       -0.20582217361021815 -0.4012794971934923
0003f0 40 0b 4a 65 ee f9 c9 3f c0 98 dc 4e da b5 bd bf
       0.20293979593051326 -0.11605610299429525
000400 d0 d3 ee 34 61 88 f2 bf 24 25 26 d0 11 ef f0 3f
       -1.158295828599183 1.058366597253845
000410 70 f5 06 1a 02 88 d5 3f a0 83 e3 de b5 bf ca bf
       0.3364262823268609 -0.20897553809393532
000420 a0 14 dd ac 9d b2 d9 bf b8 56 a6 37 07 4d ea 3f
       -0.4015268505211882 0.8219028555783643
000430 80 6f b7 1e d8 4d cf 3f 80 36 4f c4 74 9a b8 bf
       0.2445631170256739 -0.0961068133612688
000440 80 fb cb f0 b5 af e4 bf 20 68 4f a0 59 56 d6 3f
       -0.646449060732138 0.349020391991532
000450 98 d7 bf dc 38 63 ec bf 2c e9 8f 56 0f 06 f0 3f
       -0.8871120749961277 1.00147947133389
000460 c0 60 e9 c3 fe 14 dd bf 24 a2 58 12 73 76 f2 bf
       -0.4544064439010178 -1.1539183346413973
000470 00 89 1f 82 07 8b cf 3f 08 e4 ef a1 23 77 f2 3f
       0.24643033841773132 1.154086716238682
000480 40 cb fa 0b cb 0f b7 3f 00 ea 56 a6 56 b4 b4 3f
       0.09008473436805975 0.08087674675963541
000490 a0 6c e6 31 c5 ed ce 3f 80 e7 01 d6 fb 52 df 3f
       0.24163117348220897 0.48943992518581325
0004a0 70 99 6f 06 ef 82 da 3f 70 4d ff 05 2e bf d7 3f
       0.41424155834683685 0.3710436876837866
0004b0 60 3f 88 ba 50 8f c2 3f 40 5f 66 da 48 9f da 3f
       0.14499863727587137 0.415971959382194
0004c0 b8 43 29 5c 03 c6 f4 3f 50 fd 0a 3f 48 dd e0 bf
       1.2983430481001346 -0.5270119887644942
0004d0 e0 67 ca 48 60 1e e7 3f 10 aa 8a c0 b6 a6 d2 3f
       0.722458021325334 0.2914254074372886
0004e0 b0 60 0f e9 ff 13 e2 bf 98 93 e9 a8 06 c5 00 40
       -0.564941363521049 2.096204108837309
0004f0 c0 e3 97 7b 03 0b e9 3f 20 cc 86 5a db 6b dc 3f
       0.7825944341594706 0.4440830596969949
000500 a0 57 5a 25 bc 34 cd 3f 70 97 a2 8d 8b 80 d9 3f
       0.22817184280273484 0.39847077209048276
000510 b4 3b 28 ce c4 74 f3 3f 00 ed c5 5d 4d 44 a7 bf
       1.2160080006612874 -0.04544297952358001
000520 f0 b1 c8 b0 fe c9 e3 3f 00 16 d9 1a cb fa e2 3f
       0.6184075787364787 0.5931144260763972
000530 80 da eb ac 8c be a6 3f a8 c7 9c 35 5a 3b f0 bf
       0.04442252741676089 -1.0144903272853103
000540 18 c4 78 cf 04 bd f5 3f d0 f8 cf bf e3 f4 db bf
       1.3586471657147339 -0.43682187778166526
000550 90 99 0b 24 e1 9d d7 bf 00 95 94 e9 14 06 ef 3f
       -0.36901119728136056 0.9694923936955604
000560 c0 6f 7e 78 92 c3 e9 3f 80 59 2e 69 58 79 bf 3f
       0.8051235535999623 0.12294533317467504
000570 c0 cd b1 93 a5 0d b8 3f 28 71 86 03 a4 e0 eb 3f
       0.09395823341201659 0.8711719578600752
000580 00 c2 a7 26 19 58 a4 bf 80 75 f4 04 b1 27 a4 3f
       -0.03973463627687934 0.039365321974609735
000590 a0 7d e9 15 ce 61 dc bf 40 53 44 95 7b a8 b2 bf
       -0.4434695447907533 -0.07288334268771468
0005a0 a0 5e 93 81 0f 34 e8 bf 70 59 cd c7 ad f9 eb 3f
       -0.7563550501608525 0.8742283728013671
0005b0 f8 32 db ba 6f d5 e6 bf f0 b7 78 fb 9b 61 dd 3f
       -0.7135542535339416 0.45908259923714834
0005c0 80 37 89 a5 69 e9 d1 3f c8 35 2d 14 2f 73 e9 3f
       0.2798713795244723 0.7953105348657852
0005d0 b8 e1 d3 96 e3 de e5 3f c0 7d f3 ad 86 74 b2 bf
       0.6834581323483269 -0.07209054705480522
0005e0 c0 57 ac 20 31 26 d4 3f 80 dd 4c 58 1e b7 b4 bf
       0.3148310488771777 -0.08091916709678593
0005f0 50 5e ca 57 27 6b d6 bf 80 bf 3c 9b bb 0d dd bf
       -0.35029014180461093 -0.45396318588154116
000600 10 0e 4d 23 d7 42 dd 3f 30 da 99 95 7a 57 d5 3f
       0.45720461318362116 0.3334642849871754
000610 b0 7a b6 db d6 69 ef bf 80 db 1c 4c ff c1 c3 bf
       -0.9816698352113544 -0.15435782638970963
000620 f8 3f 44 43 a8 b5 ea 3f 60 4f 36 e6 9c 83 e0 bf
       0.8346749604988863 -0.5160660263377217
000630 f0 95 22 db 30 0a e5 bf 10 9b 9e 73 87 7b e7 3f
       -0.6574939994795255 0.733829236812058
000640 f0 40 d3 11 12 f9 d0 3f 00 3c 3c 42 11 03 93 3f
       0.26520206204169394 0.018566388766938502
000650 b0 77 27 e6 08 f8 d0 bf 60 2a 27 dd a6 0b e4 bf
       -0.265138840446407 -0.6264223403353064
000660 40 f2 f2 2e a0 2c bb bf c0 6b 94 36 02 9b e9 bf
       -0.10614968439308203 -0.8001719537745586
000670 c0 9b 32 12 06 2e b6 3f 20 f9 ac 70 44 23 ec 3f
       0.08663976616172331 0.8793050957390598
000680 80 4c b7 e1 32 4e c4 3f d0 d3 38 59 25 cd dd bf
       0.1586364366654358 -0.46564611161312275
000690 00 8d f5 16 38 91 c3 bf e8 8d 01 1f 01 ac f2 3f
       -0.15286923523954243 1.166993256680934
0006a0 00 bd 2f 40 60 98 aa bf a8 f0 02 48 be 6c e4 bf
       -0.05194378646398867 -0.6382743269419011
0006b0 80 ce af c2 a3 e0 bb 3f 80 92 fc 1a 53 2d c1 3f
       0.10889647963613847 0.13419569795327746
0006c0 00 09 ca 4f e1 73 dc 3f a0 c0 48 62 d9 bd c8 bf
       0.44457276145853086 -0.1932937364485996
0006d0 d8 02 ed 16 cd 60 e3 3f c8 9d f5 d7 e1 51 e7 3f
       0.6055665443201077 0.7287453859288968
0006e0 c8 7d 24 0e d6 00 e1 3f 20 59 5d b2 ae 87 d7 bf
       0.531352069494397 -0.3676563970415305
0006f0 80 67 2f d7 7c a0 a0 bf 70 01 99 cf d9 e3 d8 3f
       -0.032474423663827245 0.38890691064081917
000700 58 6c ab 7b 33 0a e2 3f c0 fb c6 bb 8c 42 c5 bf
       0.5637452521726898 -0.16609343689739653
000710 40 37 91 a5 5b 5a ca bf d0 07 c0 ff 47 07 d4 3f
       -0.20588250717485757 0.3129444119987257
000720 e0 42 92 ed ab c9 c6 bf 40 74 b1 c9 c0 74 e7 bf
       -0.1780295286194109 -0.7330020846671985
000730 98 6e 93 e7 05 65 e0 bf 08 02 1a 47 a4 28 e5 3f
       -0.5123319170920295 0.6612111462309835
000740 e8 ed c4 95 d0 3c e7 bf e0 d8 19 c0 73 1a d1 bf
       -0.7261736798458829 -0.26723951110706246
000750 80 7a c8 78 ad 03 d3 3f 30 51 8b 9a a7 8f d8 3f
       0.2970994643709801 0.38376798717696925
000760 90 aa 87 7e 26 9b d0 3f c0 ac 4e 16 2a be b1 3f
       0.25946962696495124 0.06930792851078404
000770 c0 fa 5c f4 2f c4 d0 bf d8 f0 d5 05 fc b8 ee bf
       -0.2619743238791834 -0.9600811113337171
000780 e0 d2 8c 26 9e 81 c0 3f 30 6d 1e 07 9f e2 da 3f
       0.12895562059715981 0.4200818604965262
000790 00 7a 32 35 52 5e df 3f 90 8c 9f e2 fc 85 e7 3f
       0.49013190455471545 0.7351059366450432
0007a0 20 60 ea 9b 3d b3 ce 3f 20 14 fa ea a0 65 cc bf
       0.23984499085486366 -0.2218514582965847
0007b0 40 52 ae ab a5 49 d1 3f 00 62 13 2e 6a e5 de 3f
       0.2701200653621392 0.48275236606198746
0007c0 98 57 24 c4 3d 19 eb 3f 80 a7 6f 73 f3 68 a4 bf
       0.8468312102220237 -0.039863212434126716
0007d0 c0 fc f7 c7 a3 34 b7 3f 4c f5 a9 23 ed 8c f4 3f
       0.09064696914718962 1.284405841171366
0007e0 74 d6 84 5f ca 5c f3 3f f0 c9 be c8 88 68 d2 bf
       1.2101539355475355 -0.2876302681353584
0007f0 fc db 8e 67 97 a9 f1 3f 00 54 32 19 fb 22 96 3f
       1.1039041562305547 0.02161781636512572
