csqpt-data/cs-a-0.33-phi-2.51/X-theta-0.45.npy (npy, 8128 bytes, 1 tensors)

array f8 [1000]
0.012831005605480783 0.2062727444757959 -0.2459326380932234 0.18390698609735256 -1.0683195032926154 -0.3598701272834992 -0.5741609270402552 -0.27020190152833923
-0.4141876234943247 0.052672628858307924 -1.1404689095658895 -1.107290057916786 -0.7626055269984446 0.3854665306690652 -0.14330206476701246 0.3989533347995895
0.24737932673324892 0.5472172476970147 -0.4232249651187878 0.2862137823802291 0.009398498156870438 0.5763597709814476 -0.36543465996528735 -0.010251825611509169
-0.0013106275694934055 0.34426811762761034 -0.6297978491301324 -0.0652166571529822 -0.7384488447244575 -0.6171327842741938 0.11712622625939062 0.281002382170664
-0.23093413061867007 -0.5131274995268926 -0.25989819886153676 -0.7018184263319291 -0.835999927085278 -0.9614593520824011 -0.29672377742181766 -0.42329247501237965
-0.6732989109764294 -0.41706276810338494 -1.0655901400003263 0.06939833450033017 0.18544063290709012 0.1525303088844936 -0.4955802263963065 -0.9089878375212042
-0.5166305297979452 -0.07046257962856117 -0.700949598761321 -0.753872147653528 -0.06142795588876648 -1.1458830643816107 -0.26851220892752803 -0.9933677423460283
0.3571040305992206 0.1557583904535198 -0.17521240961559315 -0.2864228657301231 0.6244967237100205 0.1690215814023288 -0.0879467020074296 0.08418572972772154
-0.647757007837475 0.826982924341193 -0.4877827073351204 0.4980254142284606 -0.6175892128533995 0.35229685428822943 -0.510996708618614 -0.8098615118842485
-0.4368155175388866 -0.21416165658173902 -0.16002662399470235 0.049863242567547594 0.3129162366933844 0.3713264886695633 -0.6771212446151429 0.900849393291133
-0.1411380854959008 -0.027931379071404194 -0.19527974475971277 0.24403026025576668 -0.3635138595750016 -0.45219443641998947 -1.0297713063001357 -0.05816696334280369
0.290963353150528 -0.29946726573068894 -0.3828381824786078 -0.7835794180771334 1.1577535892519553 -0.046820472835803706 -0.16699559874216963 -0.006246353650994685
-1.2366109189754413 -0.13989870991470976 -0.031513103660325115 0.939413831259313 -0.5025321478678002 -0.20582217361021815 -0.4012794971934923 0.20293979593051326
-0.11605610299429525 -1.158295828599183 -0.20897553809393532 -0.4015268505211882 0.8219028555783643 0.2445631170256739 -0.0961068133612688 -0.646449060732138
0.349020391991532 -0.8871120749961277 -0.44585475191643376 -0.4544064439010178 -1.1539183346413973 0.24643033841773132 0.09008473436805975 0.08087674675963541
0.24163117348220897 0.48943992518581325 0.41424155834683685 0.3710436876837866 0.14499863727587137 -0.5418505129851798 -0.5270119887644942 0.2914254074372886
-0.564941363521049 0.22817184280273484 0.39847077209048276 -0.04544297952358001 0.04442252741676089 -1.0144903272853103 -0.8714753299786606 -0.43682187778166526
-0.36901119728136056 0.9694923936955604 0.8051235535999623 0.12294533317467504 0.09395823341201659 -0.03973463627687934 0.039365321974609735 -0.4434695447907533
-0.07288334268771468 -0.7563550501608525 -0.7135542535339416 0.45908259923714834 -0.6696937549532587 0.6834581323483269 -0.07209054705480522 0.3148310488771777
-0.08091916709678593 -0.35029014180461093 -0.5813497320189702 -0.45396318588154116 -0.9816698352113544 -0.15435782638970963 -0.5160660263377217 -0.6574939994795255
0.733829236812058 -0.33139803140755575 -0.265138840446407 -0.6264223403353064 -0.10614968439308203 -0.8001719537745586 0.08663976616172331 0.1586364366654358
-0.46564611161312275 -0.15286923523954243 -0.05194378646398867 -0.6382743269419011 0.10889647963613847 0.13419569795327746 0.44457276145853086 -0.4955120526705876
-0.1932937364485996 -0.7705211095210087 0.7287453859288968 0.531352069494397 -0.3676563970415305 0.38890691064081917 -0.16609343689739653 -0.20588250717485757
0.3129444119987257 -0.1780295286194109 -0.7330020846671985 -0.5123319170920295 0.6612111462309835 -0.7261736798458829 -0.26723951110706246 0.2970994643709801
0.38376798717696925 -0.5915458686487218 -0.2619743238791834 -0.9600811113337171 0.12895562059715981 -1.1115957739478937 0.4200818604965262 -0.8104677262726776
-0.2218514582965847 -0.039863212434126716 0.09064696914718962 -0.2876302681353584 -0.23869151152814805 0.02161781636512572 -0.8551132869696234 -0.281266445152057
-0.6093001800154418 -0.2330422192686772 -0.3587845954747504 -0.961752098574288 0.006030359783991024 -0.18820318742777342 -1.0638957944607315 -0.02122470754432726
-0.8457315520275239 -0.33543774925645486 0.777359479453243 0.1986286883759698 -0.4398548087527052 0.36077675890049665 -0.32435274759598176 0.7150155685213528
0.301546670987177 0.14228488608640966 -0.7496185921141896 0.18671228222552916 0.06023289338521565 0.5113414412216581 -0.8238958049112206 -0.5323273130637114
-0.2022300134113646 -0.8185891225343189 -0.04565880434547154 0.8947404116254258 -0.5922527564548776 -0.07204028711326416 0.07609924938942747 -0.5462154614335386
-0.25192342680130864 -0.29052365812590075 -0.2694055510032065 0.34766406124618854 -0.4505277063575299 -0.1630053749028848 0.22075196833233957 0.676319985809914
-0.41586242946405694 0.01490387017436845 -0.4069715015392523 0.11067373828639404 -0.20955862804839587 -0.8463547272062106 -0.11989413268525073 -0.4389323829093792
00000000: 0048 9a6b 2447 8a3f e033 ca31 2567 ca3f
00000010: 2090 d07e b87a cfbf a0a3 659d 438a c73f
00000020: c821 0531 d617 f1bf f05b dfb6 1c08 d7bf
00000030: 10ed 88bc 865f e2bf 1066 98ea fc4a d1bf
00000040: c03a 54ce 0c82 dabf 807a ae24 e8f7 aa3f
00000050: 600b cb53 5c3f f2bf 4404 9fc7 75b7 f1bf
00000060: 18a1 c6b4 4367 e8bf 2047 bbcf 7bab d83f
00000070: e0d1 cfd8 b857 c2bf 400a 6691 7388 d93f
00000080: 804d 0333 20aa cf3f 504e d5be cd82 e13f
00000090: c04c 022a 1e16 dbbf f033 bf9c 5351 d23f
000000a0: 00e2 b811 853f 833f 400d e30b 8a71 e23f
000000b0: f00c 580e 4863 d7bf 004a cebd e8fe 84bf
000000c0: 00e0 15a3 2b79 55bf 4007 9124 7d08 d63f
000000d0: a85c a3d1 4d27 e4bf 8062 a0f1 09b2 b0bf
000000e0: 7089 bb78 5fa1 e7bf 20e8 b740 8dbf e3bf
000000f0: 00b9 49ff fbfb bd3f a059 616a f1fb d13f
00000100: e0c8 44e5 3f8f cdbf 28ae a45c 8a6b e0bf
00000110: 2093 190e 2ca2 d0bf 206d 9aea 4b75 e6bf
00000120: d844 49eb 82c0 eabf 8812 3467 46c4 eebf
00000130: 003a feb9 85fd d2bf 608c 3452 3917 dbbf
00000140: 1070 6228 aa8b e5bf 8087 5809 28b1 dabf
00000150: 08dd 233f a80c f1bf c066 13d9 16c4 b13f
00000160: 40be d7c6 84bc c73f 0062 27f8 1c86 c33f
00000170: 80a6 3a20 96b7 dfbf d0b0 53a9 6d16 edbf
00000180: 501d b3bf 3c88 e0bf 00b2 18eb d509 b2bf
00000190: d05f 5ada 2d6e e6bf a030 717b b81f e8bf
000001a0: 806b 342b 7c73 afbf d0f2 e87a 8955 f2bf
000001b0: b0e8 fad4 4d2f d1bf a8e1 c825 abc9 efbf
000001c0: 4061 2cdd cada d63f e0a8 8914 e4ef c33f
000001d0: 807f 9338 5c6d c6bf 70cc 4892 c054 d2bf
000001e0: e065 998d e0fb e33f 6079 38ca 7fa2 c53f
000001f0: 40b8 e9d0 ac83 b6bf 0070 f82b 328d b53f
00000200: 3056 8de7 6cba e4bf f0aa cce4 a476 ea3f
00000210: 70c1 e3f5 d437 dfbf b009 acfc a5df df3f
00000220: e02a f273 4ac3 e3bf 30b4 e91a 088c d63f
00000230: c82d fcc4 155a e0bf 709f 7ab0 62ea e9bf
00000240: d0bf 8d12 c9f4 dbbf 40b2 892f a669 cbbf
00000250: e0f4 459e c07b c4bf 8044 33c8 ac87 a93f
00000260: 2012 bfd2 d106 d43f c05a 3e2d d0c3 d73f
00000270: 3890 212c faaa e5bf c8d1 591b c2d3 ec3f
00000280: a064 b612 d010 c2bf 0050 931e 0b9a 9cbf
00000290: 8037 a83a edfe c8bf a035 8431 623c cf3f
000002a0: 901c a1a2 cf43 d7bf 30d9 f6ee c0f0 dcbf
000002b0: 48b1 2e7a f179 f0bf 80aa 876a 0fc8 adbf
000002c0: d06c 87c1 249f d23f 604b 22c0 782a d3bf
000002d0: 00f7 59b8 6b80 d8bf 50b8 ce24 1513 e9bf
000002e0: c89e aaa0 2886 f23f 80df 395f daf8 a7bf
000002f0: 2037 969d 1c60 c5bf 0084 67ca c695 79bf
00000300: 3404 ee87 28c9 f3bf e00a eb6f 33e8 c1bf
00000310: 00ad 3b4b 7c22 a0bf e866 5598 ad0f ee3f
00000320: a0fc 884c be14 e0bf 6048 3988 6158 cabf
00000330: 8016 4033 90ae d9bf 400b 4a65 eef9 c93f
00000340: c098 dc4e dab5 bdbf d0d3 ee34 6188 f2bf
00000350: a083 e3de b5bf cabf a014 ddac 9db2 d9bf
00000360: b856 a637 074d ea3f 806f b71e d84d cf3f
00000370: 8036 4fc4 749a b8bf 80fb cbf0 b5af e4bf
00000380: 2068 4fa0 5956 d63f 98d7 bfdc 3863 ecbf
00000390: 60d3 8f5e e288 dcbf c060 e9c3 fe14 ddbf
000003a0: 24a2 5812 7376 f2bf 0089 1f82 078b cf3f
000003b0: 40cb fa0b cb0f b73f 00ea 56a6 56b4 b43f
000003c0: a06c e631 c5ed ce3f 80e7 01d6 fb52 df3f
000003d0: 7099 6f06 ef82 da3f 704d ff05 2ebf d73f
000003e0: 603f 88ba 508f c23f 10f3 12e3 d656 e1bf
000003f0: 50fd 0a3f 48dd e0bf 10aa 8ac0 b6a6 d23f
00000400: b060 0fe9 ff13 e2bf a057 5a25 bc34 cd3f
00000410: 7097 a28d 8b80 d93f 00ed c55d 4d44 a7bf
00000420: 80da ebac 8cbe a63f a8c7 9c35 5a3b f0bf
00000430: d8ee 303b 20e3 ebbf d0f8 cfbf e3f4 dbbf
00000440: 9099 0b24 e19d d7bf 0095 94e9 1406 ef3f
00000450: c06f 7e78 92c3 e93f 8059 2e69 5879 bf3f
00000460: c0cd b193 a50d b83f 00c2 a726 1958 a4bf
00000470: 8075 f404 b127 a43f a07d e915 ce61 dcbf
00000480: 4053 4495 7ba8 b2bf a05e 9381 0f34 e8bf
00000490: f832 dbba 6fd5 e6bf f0b7 78fb 9b61 dd3f
000004a0: 8882 fb98 216e e5bf b8e1 d396 e3de e53f
000004b0: c07d f3ad 8674 b2bf c057 ac20 3126 d43f
000004c0: 80dd 4c58 1eb7 b4bf 505e ca57 276b d6bf
000004d0: 38ea d1c0 6a9a e2bf 80bf 3c9b bb0d ddbf
000004e0: b07a b6db d669 efbf 80db 1c4c ffc1 c3bf
000004f0: 604f 36e6 9c83 e0bf f095 22db 300a e5bf
00000500: 109b 9e73 877b e73f c0ab b616 a035 d5bf
00000510: b077 27e6 08f8 d0bf 602a 27dd a60b e4bf
00000520: 40f2 f22e a02c bbbf c06b 9436 029b e9bf
00000530: c09b 3212 062e b63f 804c b7e1 324e c43f
00000540: d0d3 3859 25cd ddbf 008d f516 3891 c3bf
00000550: 00bd 2f40 6098 aabf a8f0 0248 be6c e4bf
00000560: 80ce afc2 a3e0 bb3f 8092 fc1a 532d c13f
00000570: 0009 ca4f e173 dc3f c09d 3f2f 78b6 dfbf
00000580: a0c0 4862 d9bd c8bf d8a6 c8e2 1ba8 e8bf
00000590: c89d f5d7 e151 e73f c87d 240e d600 e13f
000005a0: 2059 5db2 ae87 d7bf 7001 99cf d9e3 d83f
000005b0: c0fb c6bb 8c42 c5bf 4037 91a5 5b5a cabf
000005c0: d007 c0ff 4707 d43f e042 92ed abc9 c6bf
000005d0: 4074 b1c9 c074 e7bf 986e 93e7 0565 e0bf
000005e0: 0802 1a47 a428 e53f e8ed c495 d03c e7bf
000005f0: e0d8 19c0 731a d1bf 807a c878 ad03 d33f
00000600: 3051 8b9a a78f d83f f8c3 fd99 f1ed e2bf
00000610: c0fa 5cf4 2fc4 d0bf d8f0 d505 fcb8 eebf
00000620: e0d2 8c26 9e81 c03f f0a5 77a6 18c9 f1bf
00000630: 306d 1e07 9fe2 da3f 88bf 5903 5aef e9bf
00000640: 2014 faea a065 ccbf 80a7 6f73 f368 a4bf
00000650: c0fc f7c7 a334 b73f f0c9 bec8 8868 d2bf
00000660: 6050 ec85 718d cebf 0054 3219 fb22 963f
00000670: 681b 3d8a 165d ebbf 10fa d8f9 4400 d2bf
00000680: a09f 5317 637f e3bf 4051 2cd3 53d4 cdbf
00000690: 60d9 f7a9 53f6 d6bf c88c 4756 acc6 eebf
000006a0: 00bc e260 4ab3 783f e0ab 80c3 0a17 c8bf
000006b0: f4f8 b898 b705 f1bf 0088 1403 eebb 95bf
000006c0: c8e9 a49d 3b10 ebbf e09e b9e4 cf77 d5bf
000006d0: a897 affc 20e0 e83f 20a3 4f34 aa6c c93f
000006e0: 7032 a5c8 9426 dcbf d09b 2867 f716 d73f
000006f0: 10b8 d206 32c2 d4bf 08c3 5d54 68e1 e63f
00000700: e0e2 8668 8a4c d33f 4065 3a22 6436 c23f
00000710: 0854 3321 e0fc e7bf 20c8 f524 30e6 c73f
00000720: 0046 7786 d8d6 ae3f 705e e4b9 e85c e03f
00000730: 20f8 2cbc 5a5d eabf c809 0c4a d308 e1bf
00000740: c08b ef4e ace2 c9bf f8ad c4d0 e131 eabf
00000750: 0064 e03e 9760 a7bf b0e7 caa4 b6a1 ec3f
00000760: d010 7e0d bcf3 e2bf 005b 2575 3b71 b2bf
00000770: 80b3 608b 3d7b b33f b0a6 edd8 987a e1bf
00000780: c04d cd6f 831f d0bf a05c 978a f097 d2bf
00000790: 40db bac7 f03d d1bf c000 43c3 2040 d63f
000007a0: c0d6 2f29 72d5 dcbf a0da 2331 5cdd c4bf
000007b0: 60ec 41ba 9941 cc3f 98e9 95cf 69a4 e53f
000007c0: 10ba 8b73 7d9d dabf 00a8 dc97 eb85 8e3f
000007d0: 70f7 6032 d20b dabf 0054 7736 1d55 bc3f
000007e0: a0ff 072f d1d2 cabf 384d 4582 5615 ebbf
000007f0: 408d ddc2 61b1 bebf 9012 70d9 7717 dcbf
