Data-src/cs-a-2.60-phi-3.77/X-theta-2.69.npy (npy, 8128 bytes, 1 tensors)

array f8 [1000]
0	0x3ff0cf43c815f01c	1.0506017509314978
1	0x3ff0a035749c73d0	1.039113479149126
2	0x3f8a47246b9a4800	0.012831005605480783
3	0x3fca672531ca33e0	0.2062727444757959
4	0x3fed8fa20775ea20	0.9237833162035862
5	0x3fef9a86c7be9ce0	0.9876130963574745
6	0x3fe377ee5bebc248	0.6083900256472328
7	0xbfe25f86bc88ed10	-0.5741609270402552
8	0x3feb438b41c2bde8	0.8519951137913582
9	0x3ff32630c6da328c	1.1968238608998574
10	0x3faaf7e824ae7a80	0.052672628858307924
11	0xbff23f5c53cb0b60	-1.1404689095658895
12	0x3ff15dde1bc35df4	1.0854168972490443
13	0x3ff20f355ef43714	1.1287130078448557
14	0x3ffc0da2277e3c94	1.7533284704875642
15	0x3fd8ab7bcfbb4720	0.3854665306690652
16	0x3ff796e5a503e90c	1.4743400998982592
17	0x3fd9887391660a40	0.3989533347995895
18	0x3fcfaa2033034d80	0.24737932673324892
19	0x3fe182cdbed54e50	0.5472172476970147
20	0x3ff10756ad40c6e0	1.0642916457840599
21	0x3fd251539cbf33f0	0.2862137823802291
22	0x3fec259ce72dcdb8	0.8795914187634741
23	0x3fea1eaf760993d8	0.8162457757394987
24	0x3fec06ad854c3980	0.875815162989781
25	0x3fe2718a0be30d40	0.5763597709814476
26	0x3ff4139ef3f6506c	1.2547902612468773
27	0xbf84fee8bdce4a00	-0.010251825611509169
28	0xbf55792ba315e000	-0.0013106275694934055
29	0x3ffa093a40c55d30	1.627252820025955
30	0x3fe72d6068023e40	0.7242891341611042
31	0x3fd6087d24910740	0.34426811762761034
32	0xbfe4274dd1a35ca8	-0.6297978491301324
33	0x3ff437077dd28edc	1.263434878820525
34	0x3ff7689fbb4b88d8	1.4630429569447667
35	0x3fe21c9f29a4e0e8	0.5659938634262547
36	0x3fe735a4ec5e5340	0.7252983681270067
37	0x3ff1d99742fe5ee4	1.1156227700175174
38	0x3fe87c60153d4e68	0.7651825346787975
39	0xbfe06b8a5ca4ae28	-0.5131274995268926
40	0x3fd8cb7379f69860	0.3874176684424864
41	0x3ff0939530cbcc40	1.036030951127728
42	0x3fdef440bb354b40	0.4836580112652662
43	0x3ff7cf258ff63a38	1.4880729316243002
44	0x3ff1b1389e5df9ac	1.1057668863501062
45	0xbfeec44667341288	-0.9614593520824011
46	0x3feaf3221f8ad938	0.8421793571531344
47	0x400282ce38313f68	2.313869894984169
48	0x3fec0a0521c114d0	0.8762231501829323
49	0x3fef7135663d43b8	0.9825694081174481
50	0x3fe93450d6249590	0.7876362020949035
51	0xbff10ca83f23dd08	-1.0655901400003263
52	0x3fc3861cf8276200	0.1525303088844936
53	0x3fef961849b95c40	0.9870721282885668
54	0xbfed166da953b0d0	-0.9089878375212042
55	0x3ff0b10060ff9a14	1.0432132519723654
56	0x3fe7e96233367f48	0.7472392082454258
57	0x3ff63658c983be84	1.3882682677903242
58	0x3ff1ac8e0cf2f4c0	1.1046276574918892
59	0xbfe66e2dda5a5fd0	-0.700949598761321
60	0xbfaf737c2b346b80	-0.06142795588876648
61	0xbff255897ae8f2d0	-1.1458830643816107
62	0xbfefc9ab25c8e1a8	-0.9933677423460283
63	0x3fd6dacadd2c6140	0.3571040305992206
64	0x3fc3efe41489a8e0	0.1557583904535198
65	0x3fe3fbe08d9965e0	0.6244967237100205
66	0xbfe4ba6ce78d5630	-0.647757007837475
67	0x3fee57672c074108	0.9481693134239615
68	0x3fea76a4e4ccaaf0	0.826982924341193
69	0x3fdfdfa5fcac09b0	0.4980254142284606
70	0x3fd68c081ae9b430	0.35229685428822943
71	0x3fe2ba3071d3dcb8	0.5852281783289959
72	0x3ff055d449fb6dac	1.0209544076850348
73	0x3fe82418788ee340	0.7544061998988596
74	0x3fe25032457f5c90	0.5722895963071029
75	0x3ff3ad07c67a5014	1.2297437432325795
76	0x3fec40db420ef8a0	0.8829170503811561
77	0xbfc47bc09e45f4e0	-0.16002662399470235
78	0x3fa987acc8334480	0.049863242567547594
79	0x3fee2b1b51a4ca98	0.9427620501140437
80	0x3ff639563122ab1c	1.3889982146599271
81	0x3fd406d1d2bf1220	0.3129162366933844
82	0x3fd7c3d02d3e5ac0	0.3713264886695633
83	0xbfe5aafa2c219038	-0.6771212446151429
84	0x3ff05bc4f82be7c0	1.0224046415519155
85	0x3fe52cbfd4582c80	0.6617125651695375
86	0x3fecd3c21b59d1c8	0.900849393291133
87	0x3ffa6a5181dc1514	1.650956637634697
88	0x3ff518c8d40e5a98	1.318550899833701
89	0x3fcf3c62318435a0	0.24403026025576668
90	0x3fecaf36db1b1698	0.8963884620104237
91	0xbff079f17a2eb148	-1.0297713063001357
92	0x3fd29f24c1876cd0	0.290963353150528
93	0x3ff28114df17ba24	1.1565140451963396
94	0x3febab29d9377e28	0.864643978358747
95	0x3ff557a428c62cd0	1.333896788858329
96	0x3fed5a5450a90bb0	0.91727653268787
97	0x3ff79304e3ae7fc4	1.4733933347524593
98	0x3ff28628a0aa9ec8	1.1577535892519553
99	0x3fe4920f69c75cf8	0.6428296152106716
100	0x3ffdf99d8da70eb8	1.8734412701896144
101	0x3fe82df5d79dd7d0	0.755610390783426
102	0xbf7995c6ca678400	-0.006246353650994685
103	0x3ff106718d55416c	1.0640731354543176
104	0x3fe7b68c07a53c08	0.7410335683179037
105	0x3fe4fd4aae0020b8	0.6559193991133929
106	0x3ff6a9ebcd5be3c0	1.416484644111037
107	0x3fee0fad985566e8	0.939413831259313
108	0x3fe5d47b29c85470	0.6821876350465015
109	0x3fe2979c49233090	0.5810071400133143
110	0x3ff35cae25ad3270	1.210127017187144
111	0x3fe74286153d9cb0	0.7268705763680341
112	0xbff2886134eed3d0	-1.158295828599183
113	0x3ff0ef11d0262524	1.058366597253845
114	0x3fea4d0737a656b8	0.8219028555783643
115	0x3febdb989dcdecf0	0.8705561716191408
116	0x3fd65659a04f6820	0.349020391991532
117	0x3ff0060f568fe92c	1.00147947133389
118	0xbfdd14fec3e960c0	-0.4544064439010178
119	0x3fcf8b07821f8900	0.24643033841773132
120	0x3ff27723a1efe408	1.154086716238682
121	0x3fef84f5d6a0e650	0.9849805061305208
122	0x3feeeecb27166860	0.9666496051243136
123	0x3fceedc531e66ca0	0.24163117348220897
124	0x3fdf52fbd601e780	0.48943992518581325
125	0x3fda82ef066f9970	0.41424155834683685
126	0x3fd7bf2e05ff4d70	0.3710436876837866
127	0x3ff4c6035c2943b8	1.2983430481001346
128	0x3fe71e6048ca67e0	0.722458021325334
129	0x3fd2a6b6c08aaa10	0.2914254074372886
130	0x3ff24cd9ebf6862c	1.1437625138572782
131	0x4000c506a8e99398	2.096204108837309
132	0x3fe90b037b97e3c0	0.7825944341594706
133	0x3fd9808b8da29770	0.39847077209048276
134	0x3ff374c4ce283bb4	1.2160080006612874
135	0x3fe3c9feb0c8b1f0	0.6184075787364787
136	0x3fe2facb1ad91600	0.5931144260763972
137	0x3ff36fca99fffdc0	1.2147928252814921
138	0x3fa6be8cacebda80	0.04442252741676089
139	0xbff03b5a359cc7a8	-1.0144903272853103
140	0x3ff5bd04cf78c418	1.3586471657147339
141	0x3fef0614e9949500	0.9694923936955604
142	0x3fe6a5f1e6591758	0.707756948374235
143	0x3ff20921efcb152c	1.127229630177065
144	0x3fe9c392787e6fc0	0.8051235535999623
145	0x3ffbc3786bd38d34	1.7352222644775113
146	0x3febbe8fbc068810	0.867011897313434
147	0x3fb80da593b1cdc0	0.09395823341201659
148	0x3febe0a403867128	0.8711719578600752
149	0x3fe56996cfe74fc0	0.6691392956367892
150	0xbfdc61ce15e97da0	-0.4434695447907533
151	0x3ff8ee822d015304	1.558229614068467
152	0x3febf9adc7cd5970	0.8742283728013671
153	0x3ff02a72b3302ad0	1.0103632926499593
154	0x3fdd619bfb78b7f0	0.45908259923714834
155	0x3fe9732f142d35c8	0.7953105348657852
156	0x3fe5dee396d3e1b8	0.6834581323483269
157	0x3fd4263120ac57c0	0.3148310488771777
158	0x3ff000dfac2fda0c	1.0002133108188245
159	0x3fe650076cb890d8	0.6972691653686764
160	0xbfd66b2757ca5e50	-0.35029014180461093
161	0xbfdd0dbb9b3cbf80	-0.45396318588154116
162	0x3fdd42d7234d0e10	0.45720461318362116
163	0x3ff0142ffc2754e0	1.0049285745383756
164	0xbfc3c1ff4c1cdb80	-0.15435782638970963
165	0x3feab5a843443ff8	0.8346749604988863
166	0xbfe0839ce6364f60	-0.5160660263377217
167	0x3ffd0856a1877570	1.814535742734133
168	0x3fe77b87739e9b10	0.733829236812058
169	0x3fedd3f791bb4a70	0.9321248861618425
170	0x3fe51435372354b8	0.6587167813219343
171	0x3fec234470acf920	0.8793050957390598
172	0x3fc44e32e1b74c80	0.1586364366654358
173	0xbfddcd255938d3d0	-0.46564611161312275
174	0x3ff2ac011f018de8	1.166993256680934
175	0x3ff52fb789226710	1.3241496426402968
176	0x3fedef009f7a3ed0	0.9354251017375308
177	0x3fbbe0a3c2afce80	0.10889647963613847
178	0x3ff1f935a762e504	1.123342183926355
179	0x3fdc73e14fca0900	0.44457276145853086
180	0xbfc8bdd96248c0a0	-0.1932937364485996
181	0x3fe360cd16ed02d8	0.6055665443201077
182	0x3ff61fe3fc5a0760	1.382785783528071
183	0x3fe4f4543c486268	0.6548253228566638
184	0x3fe751e1d7f59dc8	0.7287453859288968
185	0x3fe100d60e247dc8	0.531352069494397
186	0x3fd8e3d9cf990170	0.38890691064081917
187	0x3fe20a337bab6c58	0.5637452521726898
188	0x3fd40747ffc007d0	0.3129444119987257
189	0xbfe774c0c9b17440	-0.7330020846671985
190	0x3ff1316f74e6ab48	1.0745691839644724
191	0x3fe528a4471a0208	0.6612111462309835
192	0x3fe7cd140548a0c0	0.7437839606473275
193	0x3fd303ad78c87a80	0.2970994643709801
194	0x3fd88fa79a8b5130	0.38376798717696925
195	0xbfd0c42ff45cfac0	-0.2619743238791834
196	0x3fe665603e388820	0.6998749938250093
197	0xbfeeb8fc05d5f0d8	-0.9600811113337171
198	0x3ff282e971533d84	1.156960909534832
199	0x3ff67f8a7be134b8	1.4061379279185484
200	0x3fdae29f071e6d30	0.4200818604965262
201	0x3fdf5e5235327a00	0.49013190455471545
202	0x3fe785fce29f8c90	0.7351059366450432
203	0x3fed30f9768ddda8	0.9122283282767301
204	0x3fdee56a2e136200	0.48275236606198746
205	0x3fe746245af36118	0.727312257421576
206	0x3feb193dc4245798	0.8468312102220237
207	0x3ff48ced23a9f54c	1.284405841171366
208	0x3ff35cca5f84d674	1.2101539355475355
209	0x3ff1a997678edbfc	1.1039041562305547
210	0x3ff0791216dfe080	1.0295582669769203
211	0x3fe64230aaf82190	0.6955798472636605
212	0xbfeb5d168a3d1b68	-0.8551132869696234
213	0x3fe7e2a77f2e11a8	0.7464177593215497
214	0x3ff641193d1a9840	1.3908932101126226
215	0xbfd20044f9d8fa10	-0.281266445152057
216	0xbfe37f6317539fa0	-0.6093001800154418
217	0x3ff32f619e885cb4	1.1990677063638886
218	0xbffb0993a8ad6a84	-1.689838084121818
219	0xbff105b798b8f8f4	-1.0638957944607315
220	0x40021d7b84fc7610	2.264395750956062
221	0x3fe3b22767062590	0.6154973041713436
222	0x4000c690168f496c	2.096954513786093
223	0x3ff36f027078bad4	1.214601935712996
224	0x3fe8e020fcaf97a8	0.777359479453243
225	0x3ff01b409885900c	1.0066534002189682
226	0x3fe81e0c4b8e1578	0.7536679721530808
227	0x3fc96caa344fa320	0.1986286883759698
228	0x3ff8a3784d045100	1.5399096497031337
229	0x3fe2c2e869e6db10	0.5862924641031402
230	0x3feeaa8d55434968	0.9583193459787198
231	0x3ff85a888a5e8b6c	1.5221028714228977
232	0xbfdc2694c8a53270	-0.4398548087527052
233	0x3fd716f767289bd0	0.36077675890049665
234	0x3ff384506df316b0	1.21980326603936
235	0x3ffd19064ad4353c	1.8186095164304126
236	0x3fe00236b65d2518	0.5002702295106785
237	0x3fe6e168545dc308	0.7150155685213528
238	0x3fd34c8a6886e2e0	0.301546670987177
239	0x3ff842e495faf918	1.5163312777145332
240	0x3fc23664223a6540	0.14228488608640966
241	0xbfe7fce021335408	-0.7496185921141896
242	0x3faed6d886774600	0.06023289338521565
243	0x3ff38a5247f7947c	1.22126987564232
244	0x3ff642c68c510d5c	1.3913026314847547
245	0x3fe05ce8b9e45e70	0.5113414412216581
246	0x3fe226b959802fb0	0.5672270534573638
247	0xbfe108d34a0c09c8	-0.5323273130637114
248	0x3fe421dab1370a48	0.6291326009016496
249	0x3ff51747fbec4e24	1.3181838837380235
250	0x3feca1b6a4cae7b0	0.8947404116254258
251	0x3fee05ea03f40b08	0.9382219388211022
252	0x3ff037f9c421f73c	1.0136659299309505
253	0x3ff4e9ba2ad4f3e4	1.3070623086089137
254	0x3fec940c66994dc8	0.8930723194011359
255	0x3fd64020c34300c0	0.34766406124618854
