Data-src/cs-a-2.60-phi-2.51/X-theta-0.90.npy (npy, 8128 bytes, 1 tensors)

array f8 [1000]
000000 00 48 9a 6b 24 47 8a 3f 38 3d e0 05 47 e5 ed bf
       0.012831005605480783 -0.9342379679455126
000010 20 90 d0 7e b8 7a cf bf f8 4c 25 55 bc 53 f1 bf
       -0.2459326380932234 -1.0829432798389558
000020 8a 71 0d 7e b4 29 00 c0 14 39 ad 11 ca f8 f8 bf
       -2.020363793168319 -1.560739583062575
000030 f8 7f 15 b1 0d 73 ea bf c8 21 05 31 d6 17 f1 bf
       -0.8265446146651803 -1.0683195032926154
000040 6c 47 a7 1b e0 9b f4 bf 10 ed 88 bc 86 5f e2 bf
       -1.2880555229389428 -0.5741609270402552
000050 c0 3a 54 ce 0c 82 da bf 80 7a ae 24 e8 f7 aa 3f
       -0.4141876234943247 0.052672628858307924
000060 60 0b cb 53 5c 3f f2 bf 44 04 9f c7 75 b7 f1 bf
       -1.1404689095658895 -1.107290057916786
000070 94 3c 7e 27 a2 0d fc 3f 48 57 9d 40 83 0b f0 bf
       1.7533284704875642 -1.0028107189186404
000080 18 a1 c6 b4 43 67 e8 bf 40 0a 66 91 73 88 d9 3f
       -0.7626055269984446 0.3989533347995895
000090 80 4d 03 33 20 aa cf 3f c0 4c 02 2a 1e 16 db bf
       0.24737932673324892 -0.4232249651187878
0000a0 f0 33 bf 9c 53 51 d2 3f 74 9d 5a 89 93 30 f8 bf
       0.2862137823802291 -1.5118594518079052
0000b0 e0 e7 94 09 70 6d f2 bf 40 0d e3 0b 8a 71 e2 3f
       -1.1517181753429142 0.5763597709814476
0000c0 b0 1c 5a 72 48 78 ec bf 00 4a ce bd e8 fe 84 bf
       -0.8896829827725892 -0.010251825611509169
0000d0 00 e0 15 a3 2b 79 55 bf 2c 34 0e a9 a2 30 f4 bf
       -0.0013106275694934055 -1.2618738750200107
0000e0 24 f2 35 af 54 c5 f4 bf 0c 4f af f6 04 b3 f3 bf
       -1.298176464478396 -1.2312059055447575
0000f0 40 07 91 24 7d 08 d6 3f a8 5c a3 d1 4d 27 e4 bf
       0.34426811762761034 -0.6297978491301324
000100 70 89 bb 78 5f a1 e7 bf 20 e8 b7 40 8d bf e3 bf
       -0.7384488447244575 -0.6171327842741938
000110 48 58 44 83 de f0 e6 bf 28 9f fa 08 b6 cc f5 bf
       -0.7169029773529099 -1.3624782896749341
000120 28 ae a4 5c 8a 6b e0 bf a8 8f d0 ac d6 81 ed bf
       -0.5131274995268926 -0.9220994353568033
000130 20 93 19 0e 2c a2 d0 bf 20 6d 9a ea 4b 75 e6 bf
       -0.25989819886153676 -0.7018184263319291
000140 d8 44 49 eb 82 c0 ea bf 88 12 34 67 46 c4 ee bf
       -0.835999927085278 -0.9614593520824011
000150 00 3a fe b9 85 fd d2 bf 58 97 cf e2 9f 2d ee bf
       -0.29672377742181766 -0.9430694036388827
000160 bc 74 ba 3c 4c ad fb bf 60 8c 34 52 39 17 db bf
       -1.7298090336037566 -0.42329247501237965
000170 10 70 62 28 aa 8b e5 bf 28 85 98 b5 8d de f3 bf
       -0.6732989109764294 -1.2418343633256175
000180 48 b9 c5 d6 ab 12 f5 bf 08 dd 23 3f a8 0c f1 bf
       -1.3170584096474887 -1.0655901400003263
000190 24 bf 1a 3e 2e 87 f2 bf 00 62 27 f8 1c 86 c3 3f
       -1.158003084750768 0.1525303088844936
0001a0 c0 1d 04 6c b0 6b ed bf 0c 3c 2c f4 f2 8a f2 bf
       -0.9193956479729692 -1.1589231050491007
0001b0 3c 94 a5 35 f3 dd f1 bf f8 e3 75 93 2f e5 f1 bf
       -1.1166870208337647 -1.1184535751510776
0001c0 80 a6 3a 20 96 b7 df bf 58 61 fb 4f c8 ca f1 bf
       -0.4955802263963065 -1.112007439069279
0001d0 d0 b0 53 a9 6d 16 ed bf 88 b4 74 20 ff b1 f8 bf
       -0.9089878375212042 -1.5434561984832573
0001e0 50 1d b3 bf 3c 88 e0 bf d0 5f 5a da 2d 6e e6 bf
       -0.5166305297979452 -0.700949598761321
0001f0 a0 30 71 7b b8 1f e8 bf 80 6b 34 2b 7c 73 af bf
       -0.753872147653528 -0.06142795588876648
000200 d0 f2 e8 7a 89 55 f2 bf 40 06 23 f0 d4 cc f0 bf
       -1.1458830643816107 -1.050007761034422
000210 40 19 f7 b5 9e 21 e4 bf b0 e8 fa d4 4d 2f d1 bf
       -0.6291039995201473 -0.26851220892752803
000220 a8 e1 c8 25 ab c9 ef bf e0 a8 89 14 e4 ef c3 3f
       -0.9933677423460283 0.1557583904535198
000230 20 f3 19 93 0c 46 ef bf f8 b8 e1 20 3a 91 f5 bf
       -0.9773009179185443 -1.3479558262293363
000240 30 56 8d e7 6c ba e4 bf 08 41 07 2c 67 57 ee 3f
       -0.647757007837475 0.9481693134239615
000250 f0 aa cc e4 a4 76 ea 3f 70 c1 e3 f5 d4 37 df bf
       0.826982924341193 -0.4877827073351204
000260 e0 2a f2 73 4a c3 e3 bf c8 2d fc c4 15 5a e0 bf
       -0.6175892128533995 -0.510996708618614
000270 70 9f 7a b0 62 ea e9 bf d0 bf 8d 12 c9 f4 db bf
       -0.8098615118842485 -0.4368155175388866
000280 a4 75 a4 0a 0f 57 f3 bf 14 9a a6 7c ec f8 f0 bf
       -1.2087545791358503 -1.0607724064990451
000290 e0 f4 45 9e c0 7b c4 bf 80 44 33 c8 ac 87 a9 3f
       -0.16002662399470235 0.049863242567547594
0002a0 38 90 21 2c fa aa e5 bf c0 e7 2b f8 c4 5b f0 3f
       -0.6771212446151429 1.0224046415519155
0002b0 c8 d1 59 1b c2 d3 ec 3f c4 0f 94 2b 4e 0d fc bf
       0.900849393291133 -1.7532483770637421
0002c0 78 3f 13 df 8c 95 f3 bf a0 35 84 31 62 3c cf 3f
       -1.2240112985491276 0.24403026025576668
0002d0 90 1c a1 a2 cf 43 d7 bf 68 d9 a6 8f 07 e2 eb bf
       -0.3635138595750016 -0.8713414960573518
0002e0 48 b1 2e 7a f1 79 f0 bf e0 8c 15 5d 64 94 ea bf
       -1.0297713063001357 -0.8306142633486182
0002f0 70 2a 77 25 9a b9 ec bf 6c c6 ef 2b 9c d7 f3 bf
       -0.8976565105197789 -1.240139171245029
000300 b4 d6 d6 8d 61 38 f0 bf 50 b8 ce 24 15 13 e9 bf
       -1.0137649098009378 -0.7835794180771334
000310 c8 9e aa a0 28 86 f2 3f 10 33 ef 72 17 97 f2 bf
       1.1577535892519553 -1.1618875970481817
000320 68 5f 12 30 e8 38 eb bf d4 ac 9f 42 b9 9c fa bf
       -0.8506966532613491 -1.6632626154412735
000330 00 84 67 ca c6 95 79 bf 5a 01 5a 3e 44 ec 01 c0
       -0.006246353650994685 -2.2403645392625267
000340 34 04 ee 87 28 c9 f3 bf 54 a3 37 6c b3 56 f0 bf
       -1.2366109189754413 -1.0211672045936284
000350 88 23 d1 7b 9f 58 e9 bf e8 43 a2 25 b9 f3 e8 bf
       -0.7920682352351927 -0.7797513709102732
000360 e8 66 55 98 ad 0f ee 3f 18 e8 cc 89 6a 5c f1 bf
       0.939413831259313 -1.0850625403240937
000370 a0 fc 88 4c be 14 e0 bf 80 16 40 33 90 ae d9 bf
       -0.5025321478678002 -0.4012794971934923
000380 6c 7f cd 00 61 95 f4 bf d0 d3 ee 34 61 88 f2 bf
       -1.2864694625240771 -1.158295828599183
000390 a0 14 dd ac 9d b2 d9 bf b8 56 a6 37 07 4d ea 3f
       -0.4015268505211882 0.8219028555783643
0003a0 74 db 3d 60 1d a1 f0 bf 80 fb cb f0 b5 af e4 bf
       -1.0393346557081857 -0.646449060732138
0003b0 6c a7 6b b5 ac 8e f0 bf 98 d7 bf dc 38 63 ec bf
       -1.0348326765765377 -0.8871120749961277
0003c0 08 8f 76 05 69 60 f5 bf c0 60 e9 c3 fe 14 dd bf
       -1.3360376561549305 -0.4544064439010178
0003d0 14 94 db 4d 52 30 f1 bf 24 a2 58 12 73 76 f2 bf
       -1.074297241336585 -1.1539183346413973
0003e0 08 e4 ef a1 23 77 f2 3f dc 6e e5 b2 7e 7a f2 bf
       1.154086716238682 -1.1549059856542305
0003f0 74 76 40 19 5c 93 f5 bf 44 63 ba e2 34 68 f5 bf
       -1.3484765039824227 -1.3379410606923594
000400 70 4d ff 05 2e bf d7 3f 40 12 59 34 2f ac ef bf
       0.3710436876837866 -0.9897686026020622
000410 10 f3 12 e3 d6 56 e1 bf 50 fd 0a 3f 48 dd e0 bf
       -0.5418505129851798 -0.5270119887644942
000420 b0 60 0f e9 ff 13 e2 bf a0 d3 b0 6b a0 2e e5 bf
       -0.564941363521049 -0.6619417289099268
000430 c8 18 3d b5 16 52 f9 bf 98 93 e9 a8 06 c5 00 40
       -1.5825411872515804 2.096204108837309
000440 70 97 a2 8d 8b 80 d9 3f b4 3b 28 ce c4 74 f3 3f
       0.39847077209048276 1.2160080006612874
000450 a8 8f 83 ca 3f 63 f3 bf 80 da eb ac 8c be a6 3f
       -1.2117307577800407 0.04442252741676089
000460 a8 16 24 13 08 d9 f5 bf a8 c7 9c 35 5a 3b f0 bf
       -1.3654862163252037 -1.0144903272853103
000470 38 7b 76 f5 b3 b3 ef bf d8 ee 30 3b 20 e3 eb bf
       -0.990686396998945 -0.8714753299786606
000480 d0 f8 cf bf e3 f4 db bf 90 99 0b 24 e1 9d d7 bf
       -0.43682187778166526 -0.36901119728136056
000490 00 95 94 e9 14 06 ef 3f c0 6f 7e 78 92 c3 e9 3f
       0.9694923936955604 0.8051235535999623
0004a0 c0 cd b1 93 a5 0d b8 3f 00 c2 a7 26 19 58 a4 bf
       0.09395823341201659 -0.03973463627687934
0004b0 60 ac 80 d7 d0 95 e4 bf 24 93 80 b2 3f 07 f0 bf
       -0.6432880600963351 -1.0017697308296158
0004c0 a0 7d e9 15 ce 61 dc bf 40 53 44 95 7b a8 b2 bf
       -0.4434695447907533 -0.07288334268771468
0004d0 a0 5e 93 81 0f 34 e8 bf 60 9a f3 a3 1c c7 e6 bf
       -0.7563550501608525 -0.7118056490115343
0004e0 f8 32 db ba 6f d5 e6 bf 88 82 fb 98 21 6e e5 bf
       -0.7135542535339416 -0.6696937549532587
0004f0 b8 e1 d3 96 e3 de e5 3f a8 bb dd 3a e3 a8 e5 bf
       0.6834581323483269 -0.6768661641816509
000500 c0 7d f3 ad 86 74 b2 bf 68 95 69 08 51 25 f5 bf
       -0.07209054705480522 -1.3216104820833952
000510 50 5e ca 57 27 6b d6 bf 38 ea d1 c0 6a 9a e2 bf
       -0.35029014180461093 -0.5813497320189702
000520 04 3b 14 df ed 1a fc bf 80 bf 3c 9b bb 0d dd bf
       -1.7565745080971178 -0.45396318588154116
000530 b0 7a b6 db d6 69 ef bf 58 fe 67 55 5a ae ec bf
       -0.9816698352113544 -0.8962833088007285
000540 98 ef c1 aa ee fe f3 bf 80 db 1c 4c ff c1 c3 bf
       -1.2497393293587944 -0.15435782638970963
000550 60 4f 36 e6 9c 83 e0 bf d0 5b 8b 50 b5 31 ec bf
       -0.5160660263377217 -0.8810679028637143
000560 f0 95 22 db 30 0a e5 bf 60 e5 ca ca 71 07 e6 bf
       -0.6574939994795255 -0.6884087525169598
000570 28 84 7f 14 23 d4 e7 bf 10 9b 9e 73 87 7b e7 3f
       -0.7446456337312428 0.733829236812058
000580 cc fb bd 50 c6 ca f2 bf a0 54 06 1a 6c f0 ee bf
       -1.1745055345524973 -0.9668484218879208
000590 b0 77 27 e6 08 f8 d0 bf 60 2a 27 dd a6 0b e4 bf
       -0.265138840446407 -0.6264223403353064
0005a0 08 38 47 78 df 24 e9 bf c0 6b 94 36 02 9b e9 bf
       -0.7857510899718827 -0.8001719537745586
0005b0 20 17 77 04 e2 9f ea bf d0 d3 38 59 25 cd dd bf
       -0.8320169532023307 -0.46564611161312275
0005c0 e8 8d 01 1f 01 ac f2 3f a8 f0 02 48 be 6c e4 bf
       1.166993256680934 -0.6382743269419011
0005d0 80 ce af c2 a3 e0 bb 3f 38 8b 16 43 cb 39 f2 bf
       0.10889647963613847 -1.1391098614337363
0005e0 c0 9d 3f 2f 78 b6 df bf a0 c0 48 62 d9 bd c8 bf
       -0.4955120526705876 -0.1932937364485996
0005f0 d8 a6 c8 e2 1b a8 e8 bf c8 9d f5 d7 e1 51 e7 3f
       -0.7705211095210087 0.7287453859288968
000600 e8 20 dd 80 28 4d e9 bf 20 59 5d b2 ae 87 d7 bf
       -0.7906687275763291 -0.3676563970415305
000610 70 fd 69 c2 fe 60 eb bf 48 99 3f 93 cd 5f ee bf
       -0.8555902287625212 -0.9491947055765104
000620 b0 86 02 b3 f9 a2 ff bf 70 01 99 cf d9 e3 d8 3f
       -1.9772889130185085 0.38890691064081917
000630 6c d2 9e c8 a5 11 f5 bf 28 8a 2b d6 de 8f eb bf
       -1.3168084942564304 -0.8613123114594758
000640 ec 62 80 40 f2 2a f1 bf 40 74 b1 c9 c0 74 e7 bf
       -1.0729849357214176 -0.7330020846671985
000650 98 6e 93 e7 05 65 e0 bf 08 02 1a 47 a4 28 e5 3f
       -0.5123319170920295 0.6612111462309835
000660 e8 ed c4 95 d0 3c e7 bf 38 fe c8 36 dd ec e6 bf
       -0.7261736798458829 -0.7164140768072178
000670 98 1d b8 9c 24 7e f1 bf b0 21 54 c9 bd 62 fb bf
       -1.0932966348499118 -1.7116067757034266
000680 f8 c3 fd 99 f1 ed e2 bf c0 fa 5c f4 2f c4 d0 bf
       -0.5915458686487218 -0.2619743238791834
000690 d8 f0 d5 05 fc b8 ee bf f0 a5 77 a6 18 c9 f1 bf
       -0.9600811113337171 -1.1115957739478937
0006a0 30 6d 1e 07 9f e2 da 3f 88 bf 59 03 5a ef e9 bf
       0.4200818604965262 -0.8104677262726776
0006b0 a8 fb c8 a6 30 ef ef bf 90 58 cb 90 13 98 f1 bf
       -0.9979480035325325 -1.0996280342128877
0006c0 68 0d 32 5f 1a 70 eb bf 08 4e 36 0e 2f 12 e3 bf
       -0.8574344500815814 -0.5959697034435871
0006d0 4c f5 a9 23 ed 8c f4 3f dc 76 72 4a bf d8 f1 bf
       1.284405841171366 -1.1154168041315904
0006e0 74 d6 84 5f ca 5c f3 3f 68 1b 3d 8a 16 5d eb bf
       1.2101539355475355 -0.8551132869696234
0006f0 e0 9f 6f 18 d5 a3 f0 bf 40 3d 00 f3 f6 13 ec bf
       -1.0399981455357121 -0.8774370905029301
000700 10 fa d8 f9 44 00 d2 bf a0 9f 53 17 63 7f e3 bf
       -0.281266445152057 -0.6093001800154418
000710 30 8c 11 2b 6f e2 ed bf 60 d9 f7 a9 53 f6 d6 bf
       -0.9338908997709776 -0.3587845954747504
000720 c8 8c 47 56 ac c6 ee bf e0 95 cf 13 30 b8 f1 bf
       -0.961752098574288 -1.107467725168469
000730 14 8e 03 06 c6 62 f1 bf 2c 85 08 ba 6e cd f6 bf
       -1.0866146311681222 -1.4251544253277855
000740 00 2e cf 9c 65 19 e7 bf 84 6a ad a8 93 09 fb bf
       -0.7218502104455524 -1.689838084121818
000750 f4 f8 b8 98 b7 05 f1 bf c8 e9 a4 9d 3b 10 eb bf
       -1.0638957944607315 -0.8457315520275239
000760 e0 9e b9 e4 cf 77 d5 bf 1c 0a 56 ad c5 34 f8 bf
       -0.33543774925645486 -1.512883832067593
000770 28 bf c6 df 4e 68 e9 bf a8 97 af fc 20 e0 e8 3f
       -0.7939829226142807 0.777359479453243
000780 38 69 d1 be 6a ab f4 bf 0c 5d 6c 5a fc 3e f8 bf
       -1.291849847205027 -1.5153773815307572
000790 6c 8b 5e 8a 88 5a f8 3f 70 32 a5 c8 94 26 dc bf
       1.5221028714228977 -0.4398548087527052
0007a0 b0 ad 36 45 59 67 ee bf 10 b8 d2 06 32 c2 d4 bf
       -0.9501158096149336 -0.32435274759598176
0007b0 e0 0d 6e 46 7a 86 f8 bf 18 f9 fa 95 e4 42 f8 3f
       -1.5328314543884218 1.5163312777145332
0007c0 b4 8f ad 56 47 91 f7 bf 08 54 33 21 e0 fc e7 bf
       -1.4729684244020804 -0.7496185921141896
0007d0 00 46 77 86 d8 d6 ae 3f 44 3b 33 c5 60 c6 f7 bf
       0.06023289338521565 -1.4859321311120803
0007e0 e0 75 8b 69 02 d1 f6 bf 38 c7 ab 42 c0 97 f0 bf
       -1.4260276911585308 -1.0370485882126115
0007f0 20 f8 2c bc 5a 5d ea bf c8 09 0c 4a d3 08 e1 bf
       -0.8238958049112206 -0.5323273130637114
