csqpt-data/cs-a-2.15-phi-5.03/X-theta-0.45.npy (npy, 8128 bytes, 1 tensors)

array f8 [1000]
00000000: 1cf0 15c8 43cf f03f 0047 d39f b2ca c93f
00000010: 0048 9a6b 2447 8a3f e033 ca31 2567 ca3f
00000020: 2090 d07e b87a cfbf a0a3 659d 438a c73f
00000030: e09c bec7 869a ef3f 2061 c596 3eca d73f
00000040: 48c2 eb5b ee77 e33f 10ed 88bc 865f e2bf
00000050: e8bd c241 8b43 eb3f 8c32 dac6 3026 f33f
00000060: c03a 54ce 0c82 dabf 807a ae24 e8f7 aa3f
00000070: 600b cb53 5c3f f2bf 1437 f45e 350f f23f
00000080: 943c 7e27 a20d fc3f 2047 bbcf 7bab d83f
00000090: 400a 6691 7388 d93f 804d 0333 20aa cf3f
000000a0: 504e d5be cd82 e13f e0c6 40ad 5607 f13f
000000b0: f033 bf9c 5351 d23f b8cd 2de7 9c25 ec3f
000000c0: d893 0976 af1e ea3f 8039 4c85 ad06 ec3f
000000d0: 400d e30b 8a71 e23f 004a cebd e8fe 84bf
000000e0: 00e0 15a3 2b79 55bf 305d c540 3a09 fa3f
000000f0: 403e 0268 602d e73f 4007 9124 7d08 d63f
00000100: a85c a3d1 4d27 e4bf dc8e d27d 0737 f43f
00000110: d888 4bbb 9f68 f73f e8e0 a429 9f1c e23f
00000120: 4053 5eec a435 e73f e45e fe42 97d9 f13f
00000130: 00b9 49ff fbfb bd3f a059 616a f1fb d13f
00000140: 684e 3d15 607c e83f 28ae a45c 8a6b e0bf
00000150: 6098 f679 73cb d83f 40cc cb30 9593 f03f
00000160: 404b 35bb 40f4 de3f acf9 5d9e 38b1 f13f
00000170: 8812 3467 46c4 eebf 38d9 8a1f 22f3 ea3f
00000180: 683f 3138 ce82 0240 d014 c121 050a ec3f
00000190: 608c 3452 3917 dbbf 600a 8014 3dfc dc3f
000001a0: b843 3d66 3571 ef3f 9095 24d6 5034 e93f
000001b0: 08dd 233f a80c f1bf c066 13d9 16c4 b13f
000001c0: 3014 1155 2323 da3f 40be d7c6 84bc c73f
000001d0: 0062 27f8 1c86 c33f 405c b949 1896 ef3f
000001e0: d0b0 53a9 6d16 edbf 149a ff60 00b1 f03f
000001f0: 487f 3633 62e9 e73f 501d b3bf 3c88 e0bf
00000200: 84be 83c9 5836 f63f c0f4 f20c 8eac f13f
00000210: d05f 5ada 2d6e e6bf 806b 342b 7c73 afbf
00000220: d0f2 e87a 8955 f2bf b0e8 fad4 4d2f d1bf
00000230: a8e1 c825 abc9 efbf 4061 2cdd cada d63f
00000240: e0a8 8914 e4ef c33f e065 998d e0fb e33f
00000250: 6079 38ca 7fa2 c53f 3056 8de7 6cba e4bf
00000260: 0841 072c 6757 ee3f f0aa cce4 a476 ea3f
00000270: b009 acfc a5df df3f e02a f273 4ac3 e3bf
00000280: 687f aa8a ff40 e53f 30b4 e91a 088c d63f
00000290: b8dc d371 30ba e23f ac6d fb49 d455 f03f
000002a0: 40e3 8e78 1824 e83f 905c 7f45 3250 e23f
000002b0: 1450 7ac6 07ad f33f a0f8 0e42 db40 ec3f
000002c0: e0f4 459e c07b c4bf 8044 33c8 ac87 a93f
000002d0: 98ca a451 1b2b ee3f 709c 3b18 01a6 d73f
000002e0: 8091 0f7d afcf d83f 1cab 2231 5639 f63f
000002f0: 2012 bfd2 d106 d43f c05a 3e2d d0c3 d73f
00000300: 3890 212c faaa e5bf c0e7 2bf8 c45b f03f
00000310: 802c 58d4 bf2c e53f c8d1 591b c2d3 ec3f
00000320: 1415 dc81 516a fa3f a035 8431 623c cf3f
00000330: 9816 1bdb 36af ec3f 48b1 2e7a f179 f0bf
00000340: d06c 87c1 249f d23f 24ba 17df 1481 f23f
00000350: d02c c628 a457 f53f b00b a950 545a ed3f
00000360: c47f aee3 0493 f73f c89e aaa0 2886 f23f
00000370: f85c c769 0f92 e43f b80e a78d 9df9 fd3f
00000380: d0d7 9dd7 f52d e83f 0084 67ca c695 79bf
00000390: 6c41 558d 7106 f13f 083c a507 8cb6 e73f
000003a0: b820 00ae 4afd e43f c0e3 5bcd eba9 f63f
000003b0: 00ad 3b4b 7c22 a0bf e866 5598 ad0f ee3f
000003c0: 7054 c829 7bd4 e53f a0fc 884c be14 e0bf
000003d0: 9030 2349 9c97 e23f 400b 4a65 eef9 c93f
000003e0: b09c 3d15 8642 e73f d0d3 ee34 6188 f2bf
000003f0: 2425 26d0 11ef f03f 70f5 061a 0288 d53f
00000400: b856 a637 074d ea3f 806f b71e d84d cf3f
00000410: 2068 4fa0 5956 d63f 2ce9 8f56 0f06 f03f
00000420: c060 e9c3 fe14 ddbf 0089 1f82 078b cf3f
00000430: 08e4 efa1 2377 f23f 40cb fa0b cb0f b73f
00000440: 50e6 a0d6 f584 ef3f 6068 1627 cbee ee3f
00000450: a06c e631 c5ed ce3f 80e7 01d6 fb52 df3f
00000460: 7099 6f06 ef82 da3f 704d ff05 2ebf d73f
00000470: 603f 88ba 508f c23f 405f 66da 489f da3f
00000480: b843 295c 03c6 f43f e067 ca48 601e e73f
00000490: 10aa 8ac0 b6a6 d23f 9893 e9a8 06c5 0040
000004a0: c0e3 977b 030b e93f 20cc 865a db6b dc3f
000004b0: a057 5a25 bc34 cd3f 7097 a28d 8b80 d93f
000004c0: b43b 28ce c474 f33f 00ed c55d 4d44 a7bf
000004d0: f0b1 c8b0 fec9 e33f 0016 d91a cbfa e23f
000004e0: c0fd ff99 ca6f f33f 80da ebac 8cbe a63f
000004f0: a8c7 9c35 5a3b f0bf 18c4 78cf 04bd f53f
00000500: 0095 94e9 1406 ef3f 5817 59e6 f1a5 e63f
00000510: 2c15 cbef 2109 f23f c06f 7e78 92c3 e93f
00000520: 348d d36b 78c3 fb3f 8059 2e69 5879 bf3f
00000530: 1088 06bc 8fbe eb3f c0cd b193 a50d b83f
00000540: 2871 8603 a4e0 eb3f 00c2 a726 1958 a4bf
00000550: c04f e7cf 9669 e53f d8d0 6eae 805e e13f
00000560: a07d e915 ce61 dcbf 4053 4495 7ba8 b2bf
00000570: 0453 012d 82ee f83f 7059 cdc7 adf9 eb3f
00000580: f832 dbba 6fd5 e6bf f0b7 78fb 9b61 dd3f
00000590: c835 2d14 2f73 e93f b8e1 d396 e3de e53f
000005a0: c07d f3ad 8674 b2bf c057 ac20 3126 d43f
000005b0: d890 b86c 0750 e63f 505e ca57 276b d6bf
000005c0: 80bf 3c9b bb0d ddbf 100e 4d23 d742 dd3f
000005d0: 30da 9995 7a57 d53f e054 27fc 2f14 f03f
000005e0: 80db 1c4c ffc1 c3bf f83f 4443 a8b5 ea3f
000005f0: 604f 36e6 9c83 e0bf c8a0 f800 582d e13f
00000600: 7075 87a1 5608 fd3f 109b 9e73 877b e73f
00000610: f040 d311 12f9 d03f 704a bb91 f7d3 ed3f
00000620: b854 2337 3514 e53f c09b 3212 062e b63f
00000630: 20f9 ac70 4423 ec3f 804c b7e1 324e c43f
00000640: d0d3 3859 25cd ddbf e88d 011f 01ac f23f
00000650: 1067 2289 b72f f53f d03e 7a9f 00ef ed3f
00000660: 80ce afc2 a3e0 bb3f 04e5 62a7 35f9 f13f
00000670: 0009 ca4f e173 dc3f a0c0 4862 d9bd c8bf
00000680: d802 ed16 cd60 e33f 6007 5afc e31f f63f
00000690: 6862 483c 54f4 e43f c89d f5d7 e151 e73f
000006a0: c87d 240e d600 e13f 2059 5db2 ae87 d7bf
000006b0: 0892 3a53 11c0 e13f 7001 99cf d9e3 d83f
000006c0: 586c ab7b 330a e23f d007 c0ff 4707 d43f
000006d0: 4074 b1c9 c074 e7bf 0802 1a47 a428 e53f
000006e0: e8ed c495 d03c e7bf c0a0 4805 14cd e73f
000006f0: 807a c878 ad03 d33f 3051 8b9a a78f d83f
00000700: c0fa 5cf4 2fc4 d0bf 2088 383e 6065 e63f
00000710: d8f0 d505 fcb8 eebf 843d 5371 e982 f23f
00000720: b834 e17b 8a7f f63f 306d 1e07 9fe2 da3f
00000730: 007a 3235 525e df3f 908c 9fe2 fc85 e73f
00000740: 2060 ea9b 3db3 ce3f a8dd 8d76 f930 ed3f
00000750: 4052 aeab a549 d13f 0062 132e 6ae5 de3f
00000760: 1861 f35a 2446 e73f 9857 24c4 3d19 eb3f
00000770: 4cf5 a923 ed8c f43f 74d6 845f ca5c f33f
00000780: fcdb 8e67 97a9 f13f 80e0 df16 1279 f03f
00000790: 2010 8dfa e0fa db3f 9021 f8aa 3042 e63f
000007a0: 681b 3d8a 165d ebbf a811 2e7f a7e2 e73f
000007b0: 4098 1a3d 1941 f63f 10fa d8f9 4400 d2bf
000007c0: a09f 5317 637f e3bf b45c 889e 612f f33f
000007d0: 846a ada8 9309 fbbf f4f8 b898 b705 f1bf
000007e0: e09e b9e4 cf77 d5bf 9025 0667 27b2 e33f
000007f0: 1878 ca27 33ba e23f 6c49 8f16 90c6 0040
1.0506017509314978 0.20149834445924597 0.012831005605480783 0.2062727444757959 -0.2459326380932234 0.18390698609735256 0.9876130963574745 0.37171902393085254
0.6083900256472328 -0.5741609270402552 0.8519951137913582 1.1968238608998574 -0.4141876234943247 0.052672628858307924 -1.1404689095658895 1.1287130078448557
1.7533284704875642 0.3854665306690652 0.3989533347995895 0.24737932673324892 0.5472172476970147 1.0642916457840599 0.2862137823802291 0.8795914187634741
0.8162457757394987 0.875815162989781 0.5763597709814476 -0.010251825611509169 -0.0013106275694934055 1.627252820025955 0.7242891341611042 0.34426811762761034
-0.6297978491301324 1.263434878820525 1.4630429569447667 0.5659938634262547 0.7252983681270067 1.1156227700175174 0.11712622625939062 0.281002382170664
0.7651825346787975 -0.5131274995268926 0.3874176684424864 1.036030951127728 0.4836580112652662 1.1057668863501062 -0.9614593520824011 0.8421793571531344
2.313869894984169 0.8762231501829323 -0.42329247501237965 0.4528954220005854 0.9825694081174481 0.7876362020949035 -1.0655901400003263 0.06939833450033017
0.4083946543435699 0.18544063290709012 0.1525303088844936 0.9870721282885668 -0.9089878375212042 1.0432132519723654 0.7472392082454258 -0.5166305297979452
1.3882682677903242 1.1046276574918892 -0.700949598761321 -0.06142795588876648 -1.1458830643816107 -0.26851220892752803 -0.9933677423460283 0.3571040305992206
0.1557583904535198 0.6244967237100205 0.1690215814023288 -0.647757007837475 0.9481693134239615 0.826982924341193 0.4980254142284606 -0.6175892128533995
0.6641843517609063 0.35229685428822943 0.5852281783289959 1.0209544076850348 0.7544061998988596 0.5722895963071029 1.2297437432325795 0.8829170503811561
-0.16002662399470235 0.049863242567547594 0.9427620501140437 0.36950709692468475 0.38767611706705196 1.3889982146599271 0.3129162366933844 0.3713264886695633
-0.6771212446151429 1.0224046415519155 0.6617125651695375 0.900849393291133 1.650956637634697 0.24403026025576668 0.8963884620104237 -1.0297713063001357
0.290963353150528 1.1565140451963396 1.333896788858329 0.91727653268787 1.4733933347524593 1.1577535892519553 0.6428296152106716 1.8734412701896144
0.755610390783426 -0.006246353650994685 1.0640731354543176 0.7410335683179037 0.6559193991133929 1.416484644111037 -0.031513103660325115 0.939413831259313
0.6821876350465015 -0.5025321478678002 0.5810071400133143 0.20293979593051326 0.7268705763680341 -1.158295828599183 1.058366597253845 0.3364262823268609
0.8219028555783643 0.2445631170256739 0.349020391991532 1.00147947133389 -0.4544064439010178 0.24643033841773132 1.154086716238682 0.09008473436805975
0.9849805061305208 0.9666496051243136 0.24163117348220897 0.48943992518581325 0.41424155834683685 0.3710436876837866 0.14499863727587137 0.415971959382194
1.2983430481001346 0.722458021325334 0.2914254074372886 2.096204108837309 0.7825944341594706 0.4440830596969949 0.22817184280273484 0.39847077209048276
1.2160080006612874 -0.04544297952358001 0.6184075787364787 0.5931144260763972 1.2147928252814921 0.04442252741676089 -1.0144903272853103 1.3586471657147339
0.9694923936955604 0.707756948374235 1.127229630177065 0.8051235535999623 1.7352222644775113 0.12294533317467504 0.867011897313434 0.09395823341201659
0.8711719578600752 -0.03973463627687934 0.6691392956367892 0.542785969437797 -0.4434695447907533 -0.07288334268771468 1.558229614068467 0.8742283728013671
-0.7135542535339416 0.45908259923714834 0.7953105348657852 0.6834581323483269 -0.07209054705480522 0.3148310488771777 0.6972691653686764 -0.35029014180461093
-0.45396318588154116 0.45720461318362116 0.3334642849871754 1.0049285745383756 -0.15435782638970963 0.8346749604988863 -0.5160660263377217 0.536785127541429
1.814535742734133 0.733829236812058 0.26520206204169394 0.9321248861618425 0.6587167813219343 0.08663976616172331 0.8793050957390598 0.1586364366654358
-0.46564611161312275 1.166993256680934 1.3241496426402968 0.9354251017375308 0.10889647963613847 1.123342183926355 0.44457276145853086 -0.1932937364485996
0.6055665443201077 1.382785783528071 0.6548253228566638 0.7287453859288968 0.531352069494397 -0.3676563970415305 0.5546957612573928 0.38890691064081917
0.5637452521726898 0.3129444119987257 -0.7330020846671985 0.6612111462309835 -0.7261736798458829 0.7437839606473275 0.2970994643709801 0.38376798717696925
-0.2619743238791834 0.6998749938250093 -0.9600811113337171 1.156960909534832 1.4061379279185484 0.4200818604965262 0.49013190455471545 0.7351059366450432
0.23984499085486366 0.9122283282767301 0.2701200653621392 0.48275236606198746 0.727312257421576 0.8468312102220237 1.284405841171366 1.2101539355475355
1.1039041562305547 1.0295582669769203 0.43718742816804657 0.6955798472636605 -0.8551132869696234 0.7464177593215497 1.3908932101126226 -0.281266445152057
-0.6093001800154418 1.1990677063638886 -1.689838084121818 -1.0638957944607315 -0.33543774925645486 0.6154973041713436 0.5852294709363859 2.096954513786093
