csqpt-data/cs-a-0.10-phi-2.51/X-theta-2.24.npy (npy, 8128 bytes, 1 tensors)

array f8 [1000]
0	0x3fc9cab29fd34700	0.20149834445924597
1	0x3f8a47246b9a4800	0.012831005605480783
2	0x3fca672531ca33e0	0.2062727444757959
3	0xbfcf7ab87ed09020	-0.2459326380932234
4	0x3fc78a439d65a3a0	0.18390698609735256
5	0xbfd7081cb6df5bf0	-0.3598701272834992
6	0xbfe25f86bc88ed10	-0.5741609270402552
7	0xbfd14afcea986610	-0.27020190152833923
8	0xbfda820cce543ac0	-0.4141876234943247
9	0x3faaf7e824ae7a80	0.052672628858307924
10	0xbff23f5c53cb0b60	-1.1404689095658895
11	0x3ffc0da2277e3c94	1.7533284704875642
12	0x3fd8ab7bcfbb4720	0.3854665306690652
13	0xbfc257b8d8cfd1e0	-0.14330206476701246
14	0x3fd9887391660a40	0.3989533347995895
15	0x3fcfaa2033034d80	0.24737932673324892
16	0x3fe182cdbed54e50	0.5472172476970147
17	0xbfdb161e2a024cc0	-0.4232249651187878
18	0x3fd251539cbf33f0	0.2862137823802291
19	0x3f833f8511b8e200	0.009398498156870438
20	0x3fe2718a0be30d40	0.5763597709814476
21	0xbf84fee8bdce4a00	-0.010251825611509169
22	0xbf55792ba315e000	-0.0013106275694934055
23	0x3fd6087d24910740	0.34426811762761034
24	0xbfe4274dd1a35ca8	-0.6297978491301324
25	0xbfb0b209f1a06280	-0.0652166571529822
26	0xbfe7a15f78bb8970	-0.7384488447244575
27	0x3fcc07f95eadb300	0.2189933502480912
28	0x3fbdfbfbff49b900	0.11712622625939062
29	0x3fd1fbf16a6159a0	0.281002382170664
30	0xbfe06b8a5ca4ae28	-0.5131274995268926
31	0x3fd8cb7379f69860	0.3874176684424864
32	0xbfd0a22c0e199320	-0.25989819886153676
33	0xbfeec44667341288	-0.9614593520824011
34	0xbfd2fd85b9fe3a00	-0.29672377742181766
35	0x3fd062a3610ea260	0.2560203979324225
36	0xbfdb173952348c60	-0.42329247501237965
37	0xbff10ca83f23dd08	-1.0655901400003263
38	0x3fb1c416d91366c0	0.06939833450033017
39	0x3fc7bc84c6d7be40	0.18544063290709012
40	0x3fc3861cf8276200	0.1525303088844936
41	0xbfdfb796203aa680	-0.4955802263963065
42	0xbfed166da953b0d0	-0.9089878375212042
43	0xbfe0883cbfb31d50	-0.5166305297979452
44	0xbfb209d5eb18b200	-0.07046257962856117
45	0xbfe66e2dda5a5fd0	-0.700949598761321
46	0xbfe81fb87b7130a0	-0.753872147653528
47	0x3fcce93f6a8b62a0	0.22586815550200345
48	0xbfaf737c2b346b80	-0.06142795588876648
49	0xbff255897ae8f2d0	-1.1458830643816107
50	0xbfd12f4dd4fae8b0	-0.26851220892752803
51	0xbfefc9ab25c8e1a8	-0.9933677423460283
52	0x3fd6dacadd2c6140	0.3571040305992206
53	0x3fc3efe41489a8e0	0.1557583904535198
54	0xbfc66d5c38937f80	-0.17521240961559315
55	0xbfd254c09248cc70	-0.2864228657301231
56	0x3fe3fbe08d9965e0	0.6244967237100205
57	0x3fc5a27fca387960	0.1690215814023288
58	0xbfb683acd0e9b840	-0.0879467020074296
59	0x3fb58d322bf87000	0.08418572972772154
60	0xbfe4ba6ce78d5630	-0.647757007837475
61	0x3fee57672c074108	0.9481693134239615
62	0x3fea76a4e4ccaaf0	0.826982924341193
63	0xbfdf37d4f5e3c170	-0.4877827073351204
64	0x3fdfdfa5fcac09b0	0.4980254142284606
65	0xbfe3c34a73f22ae0	-0.6175892128533995
66	0x3fd68c081ae9b430	0.35229685428822943
67	0x3fc1313ee7209020	0.13431535993106625
68	0xbfdbf4c9128dbfd0	-0.4368155175388866
69	0xbfcb69a62f89b240	-0.21416165658173902
70	0x3fe82418788ee340	0.7544061998988596
71	0xbfc47bc09e45f4e0	-0.16002662399470235
72	0x3fa987acc8334480	0.049863242567547594
73	0x3fee2b1b51a4ca98	0.9427620501140437
74	0x3fd7a601183b9c70	0.36950709692468475
75	0x3fd406d1d2bf1220	0.3129162366933844
76	0x3fd7c3d02d3e5ac0	0.3713264886695633
77	0xbfe5aafa2c219038	-0.6771212446151429
78	0x3ff05bc4f82be7c0	1.0224046415519155
79	0x3fecd3c21b59d1c8	0.900849393291133
80	0xbfc210d012b664a0	-0.1411380854959008
81	0xbf9c9a0b1e935000	-0.027931379071404194
82	0xbfc8feed3aa83780	-0.19527974475971277
83	0x3fcf3c62318435a0	0.24403026025576668
84	0xbfd743cfa2a11c90	-0.3635138595750016
85	0xbff079f17a2eb148	-1.0297713063001357
86	0xbfadc80f6a87aa80	-0.05816696334280369
87	0x3fd29f24c1876cd0	0.290963353150528
88	0xbfe9131524ceb850	-0.7835794180771334
89	0x3ff28628a0aa9ec8	1.1577535892519553
90	0xbfa7f8da5f39df80	-0.046820472835803706
91	0xbfc5601c9d963720	-0.16699559874216963
92	0xbf7995c6ca678400	-0.006246353650994685
93	0xbfc1e8336feb0ae0	-0.13989870991470976
94	0xbfa0227c4b3bad00	-0.031513103660325115
95	0x3fee0fad985566e8	0.939413831259313
96	0xbfe014be4c88fca0	-0.5025321478678002
97	0xbfca586188394860	-0.20582217361021815
98	0xbfd9ae9033401680	-0.4012794971934923
99	0x3fc9f9ee654a0b40	0.20293979593051326
100	0xbfbdb5da4edc98c0	-0.11605610299429525
101	0x3fd588021a06f570	0.3364262823268609
102	0xbfcabfb5dee383a0	-0.20897553809393532
103	0xbfd9b29dacdd14a0	-0.4015268505211882
104	0x3fea4d0737a656b8	0.8219028555783643
105	0x3fcf4dd81eb76f80	0.2445631170256739
106	0xbfb89a74c44f3680	-0.0961068133612688
107	0xbfe4afb5f0cbfb80	-0.646449060732138
108	0x3fd65659a04f6820	0.349020391991532
109	0xbfdd14fec3e960c0	-0.4544064439010178
110	0x3fcf8b07821f8900	0.24643033841773132
111	0x3ff27723a1efe408	1.154086716238682
112	0x3fb70fcb0bfacb40	0.09008473436805975
113	0x3fb4b456a656ea00	0.08087674675963541
114	0x3fceedc531e66ca0	0.24163117348220897
115	0x3fdf52fbd601e780	0.48943992518581325
116	0x3fda82ef066f9970	0.41424155834683685
117	0x3fd7bf2e05ff4d70	0.3710436876837866
118	0x3fc28f50ba883f60	0.14499863727587137
119	0xbfe0dd483f0afd50	-0.5270119887644942
120	0x3fd2a6b6c08aaa10	0.2914254074372886
121	0xbfe213ffe90f60b0	-0.564941363521049
122	0x3fe90b037b97e3c0	0.7825944341594706
123	0x3fcd34bc255a57a0	0.22817184280273484
124	0x3fd9808b8da29770	0.39847077209048276
125	0x3ff374c4ce283bb4	1.2160080006612874
126	0xbfa7444d5dc5ed00	-0.04544297952358001
127	0x3fe2facb1ad91600	0.5931144260763972
128	0x3fa6be8cacebda80	0.04442252741676089
129	0xbff03b5a359cc7a8	-1.0144903272853103
130	0xbfdbf4e3bfcff8d0	-0.43682187778166526
131	0xbfd79de1240b9990	-0.36901119728136056
132	0x3fef0614e9949500	0.9694923936955604
133	0x3fe9c392787e6fc0	0.8051235535999623
134	0x3fbf7958692e5980	0.12294533317467504
135	0x3fb80da593b1cdc0	0.09395823341201659
136	0x3febe0a403867128	0.8711719578600752
137	0xbfa4581926a7c200	-0.03973463627687934
138	0x3fa427b104f47580	0.039365321974609735
139	0xbfdc61ce15e97da0	-0.4434695447907533
140	0xbfb2a87b95445340	-0.07288334268771468
141	0xbfe8340f81935ea0	-0.7563550501608525
142	0xbfe6d56fbadb32f8	-0.7135542535339416
143	0x3fdd619bfb78b7f0	0.45908259923714834
144	0x3fd1e969a5893780	0.2798713795244723
145	0x3fe5dee396d3e1b8	0.6834581323483269
146	0xbfb27486adf37dc0	-0.07209054705480522
147	0x3fd4263120ac57c0	0.3148310488771777
148	0xbfb4b71e584cdd80	-0.08091916709678593
149	0xbfd66b2757ca5e50	-0.35029014180461093
150	0xbfdd0dbb9b3cbf80	-0.45396318588154116
151	0x3fdd42d7234d0e10	0.45720461318362116
152	0x3fd5577a9599da30	0.3334642849871754
153	0xbfef69d6dbb67ab0	-0.9816698352113544
154	0xbfc3c1ff4c1cdb80	-0.15435782638970963
155	0x3feab5a843443ff8	0.8346749604988863
156	0xbfe0839ce6364f60	-0.5160660263377217
157	0x3fe77b87739e9b10	0.733829236812058
158	0x3fd0f91211d340f0	0.26520206204169394
159	0x3f930311423c3c00	0.018566388766938502
160	0xbfd0f808e62777b0	-0.265138840446407
161	0xbfbb2ca02ef2f240	-0.10614968439308203
162	0xbfe99b0236946bc0	-0.8001719537745586
163	0x3fb62e0612329bc0	0.08663976616172331
164	0x3fc44e32e1b74c80	0.1586364366654358
165	0xbfddcd255938d3d0	-0.46564611161312275
166	0xbfc3913816f58d00	-0.15286923523954243
167	0x3ff2ac011f018de8	1.166993256680934
168	0xbfaa9860402fbd00	-0.05194378646398867
169	0xbfe46cbe4802f0a8	-0.6382743269419011
170	0x3fbbe0a3c2afce80	0.10889647963613847
171	0x3fc12d531afc9280	0.13419569795327746
172	0x3fdc73e14fca0900	0.44457276145853086
173	0xbfc8bdd96248c0a0	-0.1932937364485996
174	0x3fe360cd16ed02d8	0.6055665443201077
175	0x3fe751e1d7f59dc8	0.7287453859288968
176	0x3fe100d60e247dc8	0.531352069494397
177	0xbfd787aeb25d5920	-0.3676563970415305
178	0xbfa0a07cd72f6780	-0.032474423663827245
179	0x3fd8e3d9cf990170	0.38890691064081917
180	0xbfc5428cbbc6fbc0	-0.16609343689739653
181	0xbfca5a5ba5913740	-0.20588250717485757
182	0x3fd40747ffc007d0	0.3129444119987257
183	0xbfc6c9abed9242e0	-0.1780295286194109
184	0xbfe774c0c9b17440	-0.7330020846671985
185	0xbfe06505e7936e98	-0.5123319170920295
186	0x3fe528a4471a0208	0.6612111462309835
187	0xbfe73cd095c4ede8	-0.7261736798458829
188	0xbfd11a73c019d8e0	-0.26723951110706246
189	0x3fd303ad78c87a80	0.2970994643709801
190	0x3fd88fa79a8b5130	0.38376798717696925
191	0x3fb1be2a164eacc0	0.06930792851078404
192	0xbfd0c42ff45cfac0	-0.2619743238791834
193	0xbfeeb8fc05d5f0d8	-0.9600811113337171
194	0x3fc0819e268cd2e0	0.12895562059715981
195	0x3fdae29f071e6d30	0.4200818604965262
196	0x3fdf5e5235327a00	0.49013190455471545
197	0x3fceb33d9bea6020	0.23984499085486366
198	0xbfcc65a0eafa1420	-0.2218514582965847
199	0x3fd149a5abae5240	0.2701200653621392
200	0xbfa468f3736fa780	-0.039863212434126716
201	0x3fb734a3c7f7fcc0	0.09064696914718962
202	0xbfd26888c8bec9f0	-0.2876302681353584
203	0x3f9622fb19325400	0.02161781636512572
204	0xbfeb5d168a3d1b68	-0.8551132869696234
205	0xbfd20044f9d8fa10	-0.281266445152057
206	0xbfe37f6317539fa0	-0.6093001800154418
207	0xbfcdd453d32c5140	-0.2330422192686772
208	0xbfd6f653a9f7d960	-0.3587845954747504
209	0x3f78b34a60e2bc00	0.006030359783991024
210	0xbfc8170ac380abe0	-0.18820318742777342
211	0xbff105b798b8f8f4	-1.0638957944607315
212	0xbf95bbee03148800	-0.02122470754432726
213	0xbfd577cfe4b99ee0	-0.33543774925645486
214	0x3fe3b22767062590	0.6154973041713436
215	0x3fe8e020fcaf97a8	0.777359479453243
216	0x3fc96caa344fa320	0.1986286883759698
217	0xbfdc2694c8a53270	-0.4398548087527052
218	0x3fd716f767289bd0	0.36077675890049665
219	0xbfd4c23206d2b810	-0.32435274759598176
220	0x3fe00236b65d2518	0.5002702295106785
221	0x3fe6e168545dc308	0.7150155685213528
222	0x3fd34c8a6886e2e0	0.301546670987177
223	0x3fc23664223a6540	0.14228488608640966
224	0xbfe7fce021335408	-0.7496185921141896
225	0x3fc7e63024f5c820	0.18671228222552916
226	0x3faed6d886774600	0.06023289338521565
227	0x3fe05ce8b9e45e70	0.5113414412216581
228	0xbfea5d5abc2cf820	-0.8238958049112206
229	0xbfe108d34a0c09c8	-0.5323273130637114
230	0xbfc9e2ac4eef8bc0	-0.2022300134113646
231	0x3fe421dab1370a48	0.6291326009016496
232	0xbfa760973ee06400	-0.04565880434547154
233	0x3ff51747fbec4e24	1.3181838837380235
234	0x3feca1b6a4cae7b0	0.8947404116254258
235	0xbfe2f3bc0d7e10d0	-0.5922527564548776
236	0xbfb2713b75255b00	-0.07204028711326416
237	0x3fee05ea03f40b08	0.9382219388211022
238	0x3fb37b3d8b60b380	0.07609924938942747
239	0xbfd297f08a975ca0	-0.29052365812590075
240	0xbfd13df0c7badb40	-0.2694055510032065
241	0x3fd64020c34300c0	0.34766406124618854
242	0xbfc4dd5c3123daa0	-0.1630053749028848
243	0x3fcc4199ba41ec60	0.22075196833233957
244	0x3fe5a469cf95e998	0.676319985809914
245	0xbfda9d7d738bba10	-0.41586242946405694
246	0x3f8e85eb97dca800	0.01490387017436845
247	0xbfda0bd23260f770	-0.4069715015392523
248	0x3fbc551d36775400	0.11067373828639404
249	0xbfcad2d12f07ffa0	-0.20955862804839587
250	0x3fefa12215a56cd0	0.9884195730950527
251	0xbfbeb161c2dd8d40	-0.11989413268525073
252	0x3fb41ffb021cdb80	0.07861298371868308
253	0x3fcfc6da07680ae0	0.24825597154275325
254	0x3fe8e070bea86598	0.7773975108895455
255	0xbfe4d50a403f7558	-0.651005864605092
