state-tomography-data/X-theta-2.24.npy (npy, 8128 bytes, 1 tensors)

array f8 [1000]
00000000: 20be 313a 5c29 f3bf 80ce 88cd e085 d5bf
00000010: 1cc7 b3f4 fb16 f0bf 605a e1b2 a538 e0bf
00000020: a02d e6e2 9fc5 d0bf 740a 4033 db1e f0bf
00000030: f090 0e6d 581d e8bf 2052 78bd 6d85 cbbf
00000040: f02a 3490 ffa7 dd3f c08d 26d6 6c9a b1bf
00000050: 9063 2a37 4f4a d5bf 6002 54f8 fae5 e43f
00000060: c0e1 4bc9 a184 babf e8f7 fdec 2313 e2bf
00000070: 7033 e067 ff70 e23f c028 8940 483b cebf
00000080: 1486 155c d0e6 f3bf 4094 1135 8a1f e1bf
00000090: 606e 2d4c b84c ccbf 20de 8468 1e93 f5bf
000000a0: c8cf 2339 7d5c ee3f 70fc ff70 7fcf efbf
000000b0: 704c d6f1 d177 e2bf 982e 01f9 7305 e13f
000000c0: a011 e8f9 7f11 e0bf 80ce 9570 9376 c6bf
000000d0: 0c89 f62b 9c04 f6bf 8802 0dfd 4ff7 e1bf
000000e0: 5818 3eb8 d503 f2bf 487c 477f 7a24 f13f
000000f0: f01a 84f2 ac18 d7bf b088 67eb ef2d dfbf
00000100: a02e 8e8e 393e e3bf 20a0 9712 3779 df3f
00000110: 4061 810d 9345 d73f 7031 9d07 00be d5bf
00000120: 4079 6726 bdac dfbf 2009 e472 d71c c0bf
00000130: c0f4 a215 c55d dcbf 0831 a1bb ecbe e2bf
00000140: f8ee 1ab2 1ea8 eabf 40da 86a1 06f1 c8bf
00000150: 4021 0cdc af92 cabf 74c5 f076 6b65 f63f
00000160: 30a8 d0bc 3c8f debf b09c 5f25 aa5b d8bf
00000170: 8067 ebe8 5e5f c4bf f0a7 ce52 e164 efbf
00000180: c05d e143 e210 b8bf 0034 45c4 e302 b5bf
00000190: 2073 0038 424b e0bf 308d aeab d194 dcbf
000001a0: 1cc2 e468 7cd4 f6bf 70f5 2af5 c9c2 d6bf
000001b0: 80fa 2601 1d85 e9bf 603e acc2 8449 c5bf
000001c0: 0065 e2bc 32c7 ebbf 40e2 9839 703f bcbf
000001d0: 80c5 27e4 6145 b33f 0048 3463 108f 6f3f
000001e0: 58c8 7b69 9993 e2bf 20a4 8084 fc71 ccbf
000001f0: d01f 034d f24d d43f f065 7fe0 14a0 edbf
00000200: 28f7 a5d9 4b3b efbf 109a 7f2c b73a e4bf
00000210: 9059 6f22 3010 e93f c0ab 0b23 e151 cfbf
00000220: a077 afcd 8d87 cfbf e854 c29b 5d61 ed3f
00000230: 0078 831f 0803 943f 8429 b0fa 3739 f53f
00000240: 001a 7b86 e72a 9ebf 9843 aae7 59b3 e03f
00000250: f88f 9cd8 ac1f f43f 0059 ca37 6b75 b33f
00000260: 50bc 9380 fb65 d2bf a8ed 569f 34f0 e4bf
00000270: 34a5 ad28 b6ab f63f f001 d5e5 61d7 db3f
00000280: 301f 56d5 1628 d63f 98a5 f7e2 7fbd e4bf
00000290: b04f 2321 8569 d8bf b0bb 2a40 b7a2 d5bf
000002a0: 90eb 9d47 f825 eebf 20f0 0494 0b9a cc3f
000002b0: 70d2 b38a 1f3f e7bf 207f 53a2 e3a9 d3bf
000002c0: 30f7 c1a3 0e9a d0bf 00c0 a364 15ae 9dbf
000002d0: 90a2 9904 abcd e2bf 30b2 9172 3a77 d7bf
000002e0: c0c8 df5a 254d cc3f 483e ac41 2ded ebbf
000002f0: c03e a04d 866a b93f 6037 c38b 762e e7bf
00000300: 402e 99d4 143d b0bf 68f0 f5ba b117 efbf
00000310: 181e 3dec 4992 e2bf 40b3 eff0 fa78 cd3f
00000320: f060 6833 c9e7 d8bf 286b 0009 f03d e0bf
00000330: 70cc 4be1 d501 ec3f c0b0 45ee 9cd1 b5bf
00000340: 2029 ed6f 2e16 e2bf 7807 fac7 c040 e0bf
00000350: 3024 4abf 0cf2 dabf 80c0 2f9e 40f3 d0bf
00000360: c420 cbf6 82d4 f6bf c053 c342 7ad8 c5bf
00000370: 80aa 1534 3a72 e03f 0497 8170 2717 f4bf
00000380: e064 133d 4765 e8bf 3029 241e 2d12 d7bf
00000390: 40dc 33c0 48b2 babf 088a 0384 9ac2 e3bf
000003a0: a8d3 a4d8 f8dc e7bf 28c0 5526 bfdb f1bf
000003b0: 40e0 e22a 98d7 ce3f fc77 dd56 7dbb f13f
000003c0: 1048 109b 5d12 ecbf 4050 d6d7 334c b8bf
000003d0: 10ce 5392 9feb d6bf b896 e74a 4a1d eebf
000003e0: c8d4 8995 25ad e9bf 88e4 f067 3c0a f8bf
000003f0: 00a2 c0cc b7f4 90bf e0a3 7c76 f1c2 cfbf
00000400: c0cf 6ef7 c365 dc3f a0ab fb4b f63a d9bf
00000410: 4009 e0e8 cd88 bcbf e0f0 d568 9210 d33f
00000420: 583e 3e1d de78 e9bf 2036 1556 a9f6 d8bf
00000430: 68ba d8da cb9f e6bf 30c6 ac94 e39e e33f
00000440: cc77 95c9 0c93 fbbf b074 5137 1d02 edbf
00000450: 581d d662 340f ed3f 007d c728 e32b b33f
00000460: 2025 27e5 cde7 c23f b02e 3ae3 671d d1bf
00000470: 2887 0068 e903 e2bf 5077 64b6 5a35 d73f
00000480: 00b8 f712 d56d d9bf 209a e25c ce7c cfbf
00000490: 08a5 c0cf 6907 f6bf 0079 6432 ab73 943f
000004a0: 0000 15be d376 dabf a0bb 390a 3ddd c0bf
000004b0: 48f6 d030 cb94 e93f ac8d 56a9 0269 f4bf
000004c0: c00c 2eb4 4488 c1bf 80a4 e4d2 02a5 f63f
000004d0: 507f 2cbc ed44 d3bf 3052 933e d320 e3bf
000004e0: 7851 3bab 52f7 eebf d87b ddfa 5056 e5bf
000004f0: c88c 60f8 ace5 e43f 70e8 08d1 956f ecbf
00000500: f83f 5c01 9b1d e8bf c014 9989 0d36 dd3f
00000510: 0096 e9cc a22d aabf c85e 512e 6676 f4bf
00000520: 206a 2892 3e35 cfbf 602b f8be 90bf c6bf
00000530: d882 4fb8 ceab fbbf c446 9ead 2761 fabf
00000540: e003 5adc 306b e3bf 4004 98ce 2172 cbbf
00000550: 50bd 533f 6ff2 d63f d071 48be ad6b edbf
00000560: 005b 3cd7 812c abbf 1049 0064 86bc e1bf
00000570: cc2f 0a1a 7e9c f2bf 2021 28e3 4144 d0bf
00000580: b0ac abac da3d d3bf 6891 e563 b36f e6bf
00000590: e8df 2f0a d7e1 e4bf c078 374e 1af3 d5bf
000005a0: 10c2 d132 257d efbf 90d1 021f dbf7 e5bf
000005b0: f090 4042 7f77 e2bf d0fc 645d 69a0 ddbf
000005c0: c0c9 ae3c 7e0a b9bf 6811 443e 31ca f03f
000005d0: 60df b457 37ff e8bf c0ef 4342 549a c3bf
000005e0: 1811 bc8d b7ab e4bf 60e0 3cce ec73 edbf
000005f0: 48d2 8dce 189d e0bf a072 5c24 f185 f0bf
00000600: a0a2 d38d fbf5 e0bf 30fc 5896 eb1a e6bf
00000610: c80a ff18 0595 e8bf 40ad 3653 4645 b03f
00000620: 40b5 1802 f5dc ba3f 2805 e88c ee21 ebbf
00000630: 382d 797a 2a19 eb3f 60b5 fd63 6271 efbf
00000640: 9877 1069 e281 e63f 6040 b135 bcb9 c5bf
00000650: 2091 9ad3 c40c d2bf 7810 5c3c 4e92 e5bf
00000660: 80eb 11da 7035 b03f 2812 d51c 776a eabf
00000670: 205a 8c1c 473f c63f c09f 88b1 cadc dabf
00000680: 402a d682 28fc ea3f 6003 0ebf 974d dd3f
00000690: 0085 4220 375d a3bf 6852 e0b2 6dc1 e7bf
000006a0: 2083 256c 80c9 e3bf 700f c8f4 ea12 d8bf
000006b0: 40e3 43b3 6fd0 dd3f c077 a2e5 f34e c1bf
000006c0: d85c e224 6a71 e1bf d054 833f d443 d4bf
000006d0: 80e2 c7d7 164e f2bf 1073 f655 0c52 d73f
000006e0: 009b e7ba 749c e1bf 7026 c265 7cac e0bf
000006f0: 4005 9ec8 0f3b c5bf 20c4 55b9 8e74 e3bf
00000700: d8ef 7d49 de94 eabf 0098 dbb0 aa66 cabf
00000710: 9458 7178 d9c3 f03f 08c7 930a 4109 e8bf
00000720: c0bc e633 1fad c3bf 00ca dd1f a45c c7bf
00000730: 203d 9660 7c0f c53f f059 bef9 7338 dabf
00000740: 605c 9e56 63b9 d4bf 4003 be52 d12c f1bf
00000750: b8ae 077a 377a edbf 6015 8331 59cc f5bf
00000760: 7041 f925 4dc9 e3bf 809f 58c2 312b d13f
00000770: 1815 77df 0b0f eb3f 8010 3476 0965 cd3f
00000780: 80a8 b0a4 9edb c33f 0858 1298 a2fd e13f
00000790: 7cdf ae6d b4d5 f2bf 80d8 8b49 26cc afbf
000007a0: a0bb 44dd 0097 c8bf 5014 d0fc f301 e53f
000007b0: 4850 d553 798b e3bf 8030 43f6 c8f0 d8bf
000007c0: 88eb b8e2 58c5 e8bf 6084 aed8 4a7a e4bf
000007d0: a8a9 10fa 0ff3 e2bf f802 cc13 f8d5 e9bf
000007e0: 805e c25d cacb dbbf b0d4 6fc4 6ef0 e4bf
000007f0: 80cc ac44 1516 dfbf b8db d297 439f e2bf
-1.1975977204527979 -0.3362962729617962 -1.0056113775903617 -0.5069149488215992 -0.2620620456516125 -1.007533264347015 -0.7535822038667259 -0.2150094199320316
0.4633788021316567 -0.06876259067808288 -0.3326604880072006 0.6530737733992957 -0.10358630337203234 -0.5648364666701555 0.5762936619590686 -0.23618415023003614
-1.2438510510477316 -0.5351000820634297 -0.22109130591967396 -1.3484176714681624 0.9487901798261129 -0.9940793234853924 -0.5771264766102728 0.5319156516429357
-0.502136219118757 -0.17549365041087484 -1.3761254994684036 -0.5614395086668802 -1.125936240861412 1.07140588491872 -0.36088107760626453 -0.48717878330911457
-0.6013458046231399 0.49177338424351724 0.36362148589025267 -0.33972168677862324 -0.4949181437531429 -0.1258801756849346 -0.44322325814193775 -0.5858062424318016
-0.8330224493615495 -0.1948555268006249 -0.20760153049946872 1.3997606893647943 -0.4774925083062298 -0.3805947651839672 -0.15916048405670935 -0.9810644738511183
-0.09400762707934174 -0.08207534353023505 -0.5091868490013418 -0.4465831924992072 -1.426876458874296 -0.3556389707772132 -0.7974991819863391 -0.16630610948094482
-0.8680661858699352 -0.11034299284154603 0.07527744121741442 0.003852397925251161 -0.5805174885010826 -0.22222858877037854 0.31725747605059684 -0.9257912049026213
-0.9759883166259202 -0.6321674222097631 0.7832260773237056 -0.24468626223764822 -0.2463242773364387 0.91813545629216 0.019542815135416447 1.326469401598474
-0.029460542281208646 0.5218934559544435 1.2577331982984088 0.07601041900702299 -0.287474513591353 -0.6543219673252922 1.41692176713907 0.43502089924370946
0.346196850143758 -0.6481322701412635 -0.38144043193937716 -0.33805638567258267 -0.9421349905745604 0.22345108726028773 -0.7264554699928123 -0.30724421360172194
-0.25940290443382974 -0.02898438860660235 -0.5876059617849752 -0.3666521185721505 0.2211043065759153 -0.8727022440597887 0.09928168673672655 -0.7244217614877293
-0.06343202772512146 -0.9716423656059421 -0.5803575147664928 0.23025452389210876 -0.3891470911053281 -0.5075607467473207 0.8752240562738631 -0.08522969071572373
-0.5652076898634597 -0.5079044252199614 -0.42102354698778566 -0.2648469490804999 -1.4268827095384475 -0.17066887149726817 0.5139437691953646 -1.2556528467916346
-0.7623630707631968 -0.36048438971978936 -0.10428290073819912 -0.6175053194422739 -0.7457241278958593 -1.1161490914783005 0.24095441907934578 1.10827382976231
-0.8772419003091745 -0.0949127580591389 -0.3581313065508036 -0.941075464532978 -0.8023860855743346 -1.5024990139193353 -0.01655852496347343 -0.24813669476978273
0.4437112728439807 -0.3942237607977237 -0.11146246848514796 0.2978864692484091 -0.7960043498187117 -0.3900550213482763 -0.7070063852641626 0.6131456283384917
-1.723400866925192 -0.9065080719407401 0.9081060343168401 0.0748884176787108 0.14769910515887208 -0.26741978826678814 -0.5629775077142982 0.36263149081957113
-0.39732863285360054 -0.24599628005417262 -1.376809894116663 0.019972491217338906 -0.41350263178537716 -0.13175166129391602 0.7994132951204813 -1.275637303807211
-0.13697108075948528 1.415285896111783 -0.3010820710787714 -0.5977569791962818 -0.9676907867783902 -0.66678666112045 0.6530365801922011 -0.8886212427817224
-0.7536139513558728 0.4564241260271267 -0.051129424585081296 -1.27890604107772 -0.24381239067663873 -0.17772111248663247 -1.7294451903946335 -1.6487194807017866
-0.6068348220579729 -0.21442053401554695 0.358547031252745 -0.9193943706955512 -0.053073937915703695 -0.5542633011957907 -1.163206197469651 -0.2541660993888559
-0.3006502805935254 -0.7011353446110151 -0.652568359276299 -0.34296281469677226 -0.9840265266958017 -0.6865058522876542 -0.5770870489109523 -0.46291574593119567
-0.09781636220467416 1.049363368250022 -0.7811543190973502 -0.15314725146879304 -0.6459615486387831 -0.9204010036546713 -0.5191768678910842 -1.0327006740909965
-0.5300271768620242 -0.690786164901402 -0.7681909073074502 0.06355704814511842 0.10493403721985306 -0.847892070014642 0.8468220130975288 -0.9825908616018459
0.703355031207809 -0.1697306883020273 -0.28202934898787824 -0.674109571351905 0.06331544231390573 -0.8254962504511854 0.17380608457524804 -0.4197260602691095
0.8432810359384533 0.45786088617028575 -0.03782055157467745 -0.7423618787457373 -0.6183473694073633 -0.3761546507305331 0.4658469439159951 -0.1352219458830728
-0.5450945587535001 -0.3166399593586222 -1.1440647534310813 0.364382823894446 -0.5503486299975009 -0.5210554110974055 -0.16586491866841335 -0.6079782123398481
-0.8306724009885285 -0.2062581409037989 1.0478148178858975 -0.7511296469294573 -0.15372076067203544 -0.1825146823499182 0.1645350906005456 -0.4096956194784118
-0.32381518801543585 -1.073441813670982 -0.9211690314673069 -1.3623897489609007 -0.6183229200051255 0.2682613752281142 0.845586716132547 0.22964590331696755
0.15513976136691454 0.5622113199376608 -1.1771740231033325 -0.06210441253453869 -0.19210825733304393 0.6564884126424975 -0.6107756268852507 -0.3896963505656075
-0.774090235535696 -0.6399282676758382 -0.5921707042773976 -0.8073692690523719 -0.43431338459183877 -0.6543496929795278 -0.4857228441862347 -0.581941410570713
