csqpt-data/cs-a-2.15-phi-0.00/X-theta-2.24.npy (npy, 8128 bytes, 1 tensors)

array f8 [1000]
0.012831005605480783 0.2062727444757959 -0.2459326380932234 -1.0829432798389558 -2.020363793168319 -1.560739583062575 -0.8265446146651803 -1.0683195032926154
-1.2880555229389428 -0.3598701272834992 -0.5741609270402552 1.1968238608998574 -0.27020190152833923 -0.4141876234943247 0.052672628858307924 -1.1404689095658895
-1.107290057916786 1.7533284704875642 -1.0028107189186404 -0.7626055269984446 0.3854665306690652 0.3989533347995895 0.24737932673324892 0.5472172476970147
-0.4232249651187878 0.2862137823802291 -1.5118594518079052 0.009398498156870438 -1.1517181753429142 0.5763597709814476 -0.8896829827725892 -0.36543465996528735
-0.010251825611509169 -0.0013106275694934055 -1.2312059055447575 0.34426811762761034 -0.6297978491301324 -0.7384488447244575 -0.6171327842741938 -0.7169029773529099
-1.3624782896749341 -0.5131274995268926 -0.9220994353568033 -0.25989819886153676 -0.7018184263319291 -0.835999927085278 -0.9614593520824011 -0.29672377742181766
-0.9430694036388827 -1.7298090336037566 -0.42329247501237965 -0.6732989109764294 -1.3170584096474887 -0.41706276810338494 -1.0655901400003263 0.06939833450033017
-1.158003084750768 0.1525303088844936 -0.9193956479729692 -1.1589231050491007 -1.1166870208337647 -0.4955802263963065 -1.112007439069279 -0.9089878375212042
-0.5166305297979452 -0.700949598761321 -0.753872147653528 -0.5305742214776545 -0.06142795588876648 -1.1458830643816107 -0.6291039995201473 -0.26851220892752803
-0.9933677423460283 0.3571040305992206 0.1557583904535198 -0.17521240961559315 -0.2864228657301231 -0.6352685199288031 -0.9773009179185443 -1.3479558262293363
-0.647757007837475 0.9481693134239615 0.826982924341193 -0.4877827073351204 0.4980254142284606 -0.6175892128533995 -0.510996708618614 -0.8098615118842485
-0.6064672719689392 -0.4368155175388866 -1.2087545791358503 -1.0607724064990451 -0.16002662399470235 0.049863242567547594 0.3129162366933844 -0.6771212446151429
1.0224046415519155 0.900849393291133 -0.19527974475971277 -1.7532483770637421 0.24403026025576668 -0.3635138595750016 -0.8713414960573518 -0.45219443641998947
-1.0297713063001357 -0.8306142633486182 -0.05816696334280369 0.290963353150528 -0.8976565105197789 -0.3828381824786078 -1.0137649098009378 -0.7835794180771334
1.1577535892519553 -0.046820472835803706 -1.1618875970481817 -0.8506966532613491 -0.16699559874216963 -0.006246353650994685 -1.2366109189754413 -0.6921848328985121
-0.031513103660325115 -0.7920682352351927 -0.7797513709102732 0.939413831259313 -1.0850625403240937 -0.5025321478678002 -0.20582217361021815 -0.4012794971934923
-0.11605610299429525 -1.2864694625240771 -1.158295828599183 -0.20897553809393532 -0.4015268505211882 0.8219028555783643 -1.0393346557081857 -0.646449060732138
-1.0348326765765377 0.349020391991532 -0.8871120749961277 -1.3360376561549305 -0.44585475191643376 -0.4544064439010178 -1.074297241336585 -1.1539183346413973
1.154086716238682 0.09008473436805975 -1.1549059856542305 -1.3484765039824227 -1.3379410606923594 0.24163117348220897 0.3710436876837866 0.14499863727587137
1.2983430481001346 -0.5418505129851798 -0.5270119887644942 0.2914254074372886 -0.564941363521049 -0.6619417289099268 2.096204108837309 0.7825944341594706
0.39847077209048276 1.2160080006612874 -0.04544297952358001 -1.2117307577800407 0.04442252741676089 -1.3654862163252037 -1.0144903272853103 1.3586471657147339
-0.8714753299786606 -0.43682187778166526 -0.36901119728136056 0.9694923936955604 -0.6206526001895156 0.8051235535999623 0.12294533317467504 0.09395823341201659
-0.03973463627687934 -0.6432880600963351 -1.0017697308296158 -0.4434695447907533 -0.07288334268771468 -0.7563550501608525 -0.7118056490115343 -0.7135542535339416
0.45908259923714834 -0.6696937549532587 0.6834581323483269 -0.6768661641816509 -0.07209054705480522 0.3148310488771777 -1.3216104820833952 -0.35029014180461093
-0.5813497320189702 -1.7565745080971178 -0.45396318588154116 -0.9816698352113544 -0.8962833088007285 -1.2497393293587944 -0.15435782638970963 -0.5160660263377217
-0.8810679028637143 -0.6574939994795255 -0.6884087525169598 -0.7446456337312428 0.733829236812058 -1.1745055345524973 -0.9668484218879208 -0.265138840446407
-0.6264223403353064 -0.7857510899718827 -0.8001719537745586 0.08663976616172331 -0.8320169532023307 0.1586364366654358 -0.46564611161312275 1.166993256680934
-0.5282616179226673 -0.6382743269419011 0.10889647963613847 0.44457276145853086 -0.4955120526705876 -0.1932937364485996 -0.7705211095210087 0.7287453859288968
-0.7906687275763291 0.531352069494397 -0.3676563970415305 -0.8555902287625212 -0.9491947055765104 -1.9772889130185085 0.38890691064081917 -1.3168084942564304
-0.8613123114594758 -1.0729849357214176 -0.16609343689739653 -0.20588250717485757 -0.1780295286194109 -0.7330020846671985 -0.5123319170920295 0.6612111462309835
-0.7261736798458829 -0.26723951110706246 -0.7164140768072178 0.38376798717696925 -1.0932966348499118 -0.5915458686487218 -0.2619743238791834 -0.9600811113337171
-1.1115957739478937 0.4200818604965262 -0.8104677262726776 -0.9979480035325325 -1.0996280342128877 -0.2218514582965847 -0.8574344500815814 -0.5959697034435871
00000000: 0048 9a6b 2447 8a3f e033 ca31 2567 ca3f
00000010: 2090 d07e b87a cfbf f84c 2555 bc53 f1bf
00000020: 8a71 0d7e b429 00c0 1439 ad11 caf8 f8bf
00000030: f87f 15b1 0d73 eabf c821 0531 d617 f1bf
00000040: 6c47 a71b e09b f4bf f05b dfb6 1c08 d7bf
00000050: 10ed 88bc 865f e2bf 8c32 dac6 3026 f33f
00000060: 1066 98ea fc4a d1bf c03a 54ce 0c82 dabf
00000070: 807a ae24 e8f7 aa3f 600b cb53 5c3f f2bf
00000080: 4404 9fc7 75b7 f1bf 943c 7e27 a20d fc3f
00000090: 4857 9d40 830b f0bf 18a1 c6b4 4367 e8bf
000000a0: 2047 bbcf 7bab d83f 400a 6691 7388 d93f
000000b0: 804d 0333 20aa cf3f 504e d5be cd82 e13f
000000c0: c04c 022a 1e16 dbbf f033 bf9c 5351 d23f
000000d0: 749d 5a89 9330 f8bf 00e2 b811 853f 833f
000000e0: e0e7 9409 706d f2bf 400d e30b 8a71 e23f
000000f0: b01c 5a72 4878 ecbf f00c 580e 4863 d7bf
00000100: 004a cebd e8fe 84bf 00e0 15a3 2b79 55bf
00000110: 0c4f aff6 04b3 f3bf 4007 9124 7d08 d63f
00000120: a85c a3d1 4d27 e4bf 7089 bb78 5fa1 e7bf
00000130: 20e8 b740 8dbf e3bf 4858 4483 def0 e6bf
00000140: 289f fa08 b6cc f5bf 28ae a45c 8a6b e0bf
00000150: a88f d0ac d681 edbf 2093 190e 2ca2 d0bf
00000160: 206d 9aea 4b75 e6bf d844 49eb 82c0 eabf
00000170: 8812 3467 46c4 eebf 003a feb9 85fd d2bf
00000180: 5897 cfe2 9f2d eebf bc74 ba3c 4cad fbbf
00000190: 608c 3452 3917 dbbf 1070 6228 aa8b e5bf
000001a0: 48b9 c5d6 ab12 f5bf 8087 5809 28b1 dabf
000001b0: 08dd 233f a80c f1bf c066 13d9 16c4 b13f
000001c0: 24bf 1a3e 2e87 f2bf 0062 27f8 1c86 c33f
000001d0: c01d 046c b06b edbf 0c3c 2cf4 f28a f2bf
000001e0: 3c94 a535 f3dd f1bf 80a6 3a20 96b7 dfbf
000001f0: 5861 fb4f c8ca f1bf d0b0 53a9 6d16 edbf
00000200: 501d b3bf 3c88 e0bf d05f 5ada 2d6e e6bf
00000210: a030 717b b81f e8bf 281c 2bca 76fa e0bf
00000220: 806b 342b 7c73 afbf d0f2 e87a 8955 f2bf
00000230: 4019 f7b5 9e21 e4bf b0e8 fad4 4d2f d1bf
00000240: a8e1 c825 abc9 efbf 4061 2cdd cada d63f
00000250: e0a8 8914 e4ef c33f 807f 9338 5c6d c6bf
00000260: 70cc 4892 c054 d2bf 98b8 a8a5 1e54 e4bf
00000270: 20f3 1993 0c46 efbf f8b8 e120 3a91 f5bf
00000280: 3056 8de7 6cba e4bf 0841 072c 6757 ee3f
00000290: f0aa cce4 a476 ea3f 70c1 e3f5 d437 dfbf
000002a0: b009 acfc a5df df3f e02a f273 4ac3 e3bf
000002b0: c82d fcc4 155a e0bf 709f 7ab0 62ea e9bf
000002c0: 086e 660d 2e68 e3bf d0bf 8d12 c9f4 dbbf
000002d0: a475 a40a 0f57 f3bf 149a a67c ecf8 f0bf
000002e0: e0f4 459e c07b c4bf 8044 33c8 ac87 a93f
000002f0: 2012 bfd2 d106 d43f 3890 212c faaa e5bf
00000300: c0e7 2bf8 c45b f03f c8d1 591b c2d3 ec3f
00000310: 8037 a83a edfe c8bf c40f 942b 4e0d fcbf
00000320: a035 8431 623c cf3f 901c a1a2 cf43 d7bf
00000330: 68d9 a68f 07e2 ebbf 30d9 f6ee c0f0 dcbf
00000340: 48b1 2e7a f179 f0bf e08c 155d 6494 eabf
00000350: 80aa 876a 0fc8 adbf d06c 87c1 249f d23f
00000360: 702a 7725 9ab9 ecbf 00f7 59b8 6b80 d8bf
00000370: b4d6 d68d 6138 f0bf 50b8 ce24 1513 e9bf
00000380: c89e aaa0 2886 f23f 80df 395f daf8 a7bf
00000390: 1033 ef72 1797 f2bf 685f 1230 e838 ebbf
000003a0: 2037 969d 1c60 c5bf 0084 67ca c695 79bf
000003b0: 3404 ee87 28c9 f3bf 40c3 82ce 6026 e6bf
000003c0: 00ad 3b4b 7c22 a0bf 8823 d17b 9f58 e9bf
000003d0: e843 a225 b9f3 e8bf e866 5598 ad0f ee3f
000003e0: 18e8 cc89 6a5c f1bf a0fc 884c be14 e0bf
000003f0: 6048 3988 6158 cabf 8016 4033 90ae d9bf
00000400: c098 dc4e dab5 bdbf 6c7f cd00 6195 f4bf
00000410: d0d3 ee34 6188 f2bf a083 e3de b5bf cabf
00000420: a014 ddac 9db2 d9bf b856 a637 074d ea3f
00000430: 74db 3d60 1da1 f0bf 80fb cbf0 b5af e4bf
00000440: 6ca7 6bb5 ac8e f0bf 2068 4fa0 5956 d63f
00000450: 98d7 bfdc 3863 ecbf 088f 7605 6960 f5bf
00000460: 60d3 8f5e e288 dcbf c060 e9c3 fe14 ddbf
00000470: 1494 db4d 5230 f1bf 24a2 5812 7376 f2bf
00000480: 08e4 efa1 2377 f23f 40cb fa0b cb0f b73f
00000490: dc6e e5b2 7e7a f2bf 7476 4019 5c93 f5bf
000004a0: 4463 bae2 3468 f5bf a06c e631 c5ed ce3f
000004b0: 704d ff05 2ebf d73f 603f 88ba 508f c23f
000004c0: b843 295c 03c6 f43f 10f3 12e3 d656 e1bf
000004d0: 50fd 0a3f 48dd e0bf 10aa 8ac0 b6a6 d23f
000004e0: b060 0fe9 ff13 e2bf a0d3 b06b a02e e5bf
000004f0: 9893 e9a8 06c5 0040 c0e3 977b 030b e93f
00000500: 7097 a28d 8b80 d93f b43b 28ce c474 f33f
00000510: 00ed c55d 4d44 a7bf a88f 83ca 3f63 f3bf
00000520: 80da ebac 8cbe a63f a816 2413 08d9 f5bf
00000530: a8c7 9c35 5a3b f0bf 18c4 78cf 04bd f53f
00000540: d8ee 303b 20e3 ebbf d0f8 cfbf e3f4 dbbf
00000550: 9099 0b24 e19d d7bf 0095 94e9 1406 ef3f
00000560: 00b9 7fd7 62dc e3bf c06f 7e78 92c3 e93f
00000570: 8059 2e69 5879 bf3f c0cd b193 a50d b83f
00000580: 00c2 a726 1958 a4bf 60ac 80d7 d095 e4bf
00000590: 2493 80b2 3f07 f0bf a07d e915 ce61 dcbf
000005a0: 4053 4495 7ba8 b2bf a05e 9381 0f34 e8bf
000005b0: 609a f3a3 1cc7 e6bf f832 dbba 6fd5 e6bf
000005c0: f0b7 78fb 9b61 dd3f 8882 fb98 216e e5bf
000005d0: b8e1 d396 e3de e53f a8bb dd3a e3a8 e5bf
000005e0: c07d f3ad 8674 b2bf c057 ac20 3126 d43f
000005f0: 6895 6908 5125 f5bf 505e ca57 276b d6bf
00000600: 38ea d1c0 6a9a e2bf 043b 14df ed1a fcbf
00000610: 80bf 3c9b bb0d ddbf b07a b6db d669 efbf
00000620: 58fe 6755 5aae ecbf 98ef c1aa eefe f3bf
00000630: 80db 1c4c ffc1 c3bf 604f 36e6 9c83 e0bf
00000640: d05b 8b50 b531 ecbf f095 22db 300a e5bf
00000650: 60e5 caca 7107 e6bf 2884 7f14 23d4 e7bf
00000660: 109b 9e73 877b e73f ccfb bd50 c6ca f2bf
00000670: a054 061a 6cf0 eebf b077 27e6 08f8 d0bf
00000680: 602a 27dd a60b e4bf 0838 4778 df24 e9bf
00000690: c06b 9436 029b e9bf c09b 3212 062e b63f
000006a0: 2017 7704 e29f eabf 804c b7e1 324e c43f
000006b0: d0d3 3859 25cd ddbf e88d 011f 01ac f23f
000006c0: 88b7 96e8 84e7 e0bf a8f0 0248 be6c e4bf
000006d0: 80ce afc2 a3e0 bb3f 0009 ca4f e173 dc3f
000006e0: c09d 3f2f 78b6 dfbf a0c0 4862 d9bd c8bf
000006f0: d8a6 c8e2 1ba8 e8bf c89d f5d7 e151 e73f
00000700: e820 dd80 284d e9bf c87d 240e d600 e13f
00000710: 2059 5db2 ae87 d7bf 70fd 69c2 fe60 ebbf
00000720: 4899 3f93 cd5f eebf b086 02b3 f9a2 ffbf
00000730: 7001 99cf d9e3 d83f 6cd2 9ec8 a511 f5bf
00000740: 288a 2bd6 de8f ebbf ec62 8040 f22a f1bf
00000750: c0fb c6bb 8c42 c5bf 4037 91a5 5b5a cabf
00000760: e042 92ed abc9 c6bf 4074 b1c9 c074 e7bf
00000770: 986e 93e7 0565 e0bf 0802 1a47 a428 e53f
00000780: e8ed c495 d03c e7bf e0d8 19c0 731a d1bf
00000790: 38fe c836 ddec e6bf 3051 8b9a a78f d83f
000007a0: 981d b89c 247e f1bf f8c3 fd99 f1ed e2bf
000007b0: c0fa 5cf4 2fc4 d0bf d8f0 d505 fcb8 eebf
000007c0: f0a5 77a6 18c9 f1bf 306d 1e07 9fe2 da3f
000007d0: 88bf 5903 5aef e9bf a8fb c8a6 30ef efbf
000007e0: 9058 cb90 1398 f1bf 2014 faea a065 ccbf
000007f0: 680d 325f 1a70 ebbf 084e 360e 2f12 e3bf
