csqpt-data/cs-a-2.37-phi-1.26/X-theta-0.45.npy (npy, 8128 bytes, 1 tensors)

array f8 [1000]
000000 00 47 d3 9f b2 ca c9 3f 00 48 9a 6b 24 47 8a 3f
       0.20149834445924597 0.012831005605480783
000010 e0 33 ca 31 25 67 ca 3f 20 90 d0 7e b8 7a cf bf
       0.2062727444757959 -0.2459326380932234
000020 a0 a3 65 9d 43 8a c7 3f 20 61 c5 96 3e ca d7 3f
       0.18390698609735256 0.37171902393085254
000030 14 39 ad 11 ca f8 f8 bf f8 7f 15 b1 0d 73 ea bf
       -1.560739583062575 -0.8265446146651803
000040 48 c2 eb 5b ee 77 e3 3f c8 21 05 31 d6 17 f1 bf
       0.6083900256472328 -1.0683195032926154
000050 6c 47 a7 1b e0 9b f4 bf f0 5b df b6 1c 08 d7 bf
       -1.2880555229389428 -0.3598701272834992
000060 10 ed 88 bc 86 5f e2 bf 8c 32 da c6 30 26 f3 3f
       -0.5741609270402552 1.1968238608998574
000070 10 66 98 ea fc 4a d1 bf c0 3a 54 ce 0c 82 da bf
       -0.27020190152833923 -0.4141876234943247
000080 80 7a ae 24 e8 f7 aa 3f 60 0b cb 53 5c 3f f2 bf
       0.052672628858307924 -1.1404689095658895
000090 44 04 9f c7 75 b7 f1 bf 14 37 f4 5e 35 0f f2 3f
       -1.107290057916786 1.1287130078448557
0000a0 94 3c 7e 27 a2 0d fc 3f 18 a1 c6 b4 43 67 e8 bf
       1.7533284704875642 -0.7626055269984446
0000b0 20 47 bb cf 7b ab d8 3f e0 d1 cf d8 b8 57 c2 bf
       0.3854665306690652 -0.14330206476701246
0000c0 40 0a 66 91 73 88 d9 3f 80 4d 03 33 20 aa cf 3f
       0.3989533347995895 0.24737932673324892
0000d0 50 4e d5 be cd 82 e1 3f c0 4c 02 2a 1e 16 db bf
       0.5472172476970147 -0.4232249651187878
0000e0 e0 c6 40 ad 56 07 f1 3f f0 33 bf 9c 53 51 d2 3f
       1.0642916457840599 0.2862137823802291
0000f0 b8 cd 2d e7 9c 25 ec 3f 00 e2 b8 11 85 3f 83 3f
       0.8795914187634741 0.009398498156870438
000100 80 39 4c 85 ad 06 ec 3f 40 0d e3 0b 8a 71 e2 3f
       0.875815162989781 0.5763597709814476
000110 b0 1c 5a 72 48 78 ec bf f0 0c 58 0e 48 63 d7 bf
       -0.8896829827725892 -0.36543465996528735
000120 00 4a ce bd e8 fe 84 bf 00 e0 15 a3 2b 79 55 bf
       -0.010251825611509169 -0.0013106275694934055
000130 30 5d c5 40 3a 09 fa 3f 40 3e 02 68 60 2d e7 3f
       1.627252820025955 0.7242891341611042
000140 40 07 91 24 7d 08 d6 3f a8 5c a3 d1 4d 27 e4 bf
       0.34426811762761034 -0.6297978491301324
000150 dc 8e d2 7d 07 37 f4 3f d8 88 4b bb 9f 68 f7 3f
       1.263434878820525 1.4630429569447667
000160 80 62 a0 f1 09 b2 b0 bf e8 e0 a4 29 9f 1c e2 3f
       -0.0652166571529822 0.5659938634262547
000170 70 89 bb 78 5f a1 e7 bf 20 e8 b7 40 8d bf e3 bf
       -0.7384488447244575 -0.6171327842741938
000180 00 b3 ad 5e f9 07 cc 3f 28 9f fa 08 b6 cc f5 bf
       0.2189933502480912 -1.3624782896749341
000190 00 b9 49 ff fb fb bd 3f a0 59 61 6a f1 fb d1 3f
       0.11712622625939062 0.281002382170664
0001a0 e0 c8 44 e5 3f 8f cd bf 28 ae a4 5c 8a 6b e0 bf
       -0.23093413061867007 -0.5131274995268926
0001b0 60 98 f6 79 73 cb d8 3f 40 cc cb 30 95 93 f0 3f
       0.3874176684424864 1.036030951127728
0001c0 a8 8f d0 ac d6 81 ed bf 20 93 19 0e 2c a2 d0 bf
       -0.9220994353568033 -0.25989819886153676
0001d0 20 6d 9a ea 4b 75 e6 bf ac f9 5d 9e 38 b1 f1 3f
       -0.7018184263319291 1.1057668863501062
0001e0 d8 44 49 eb 82 c0 ea bf 88 12 34 67 46 c4 ee bf
       -0.835999927085278 -0.9614593520824011
0001f0 38 d9 8a 1f 22 f3 ea 3f 00 3a fe b9 85 fd d2 bf
       0.8421793571531344 -0.29672377742181766
000200 58 97 cf e2 9f 2d ee bf 68 3f 31 38 ce 82 02 40
       -0.9430694036388827 2.313869894984169
000210 d0 14 c1 21 05 0a ec 3f 60 a2 0e 61 a3 62 d0 3f
       0.8762231501829323 0.2560203979324225
000220 bc 74 ba 3c 4c ad fb bf 60 8c 34 52 39 17 db bf
       -1.7298090336037566 -0.42329247501237965
000230 b8 43 3d 66 35 71 ef 3f 90 95 24 d6 50 34 e9 3f
       0.9825694081174481 0.7876362020949035
000240 10 70 62 28 aa 8b e5 bf 48 b9 c5 d6 ab 12 f5 bf
       -0.6732989109764294 -1.3170584096474887
000250 80 87 58 09 28 b1 da bf 08 dd 23 3f a8 0c f1 bf
       -0.41706276810338494 -1.0655901400003263
000260 c0 66 13 d9 16 c4 b1 3f 30 14 11 55 23 23 da 3f
       0.06939833450033017 0.4083946543435699
000270 40 be d7 c6 84 bc c7 3f 00 62 27 f8 1c 86 c3 3f
       0.18544063290709012 0.1525303088844936
000280 c0 1d 04 6c b0 6b ed bf 80 a6 3a 20 96 b7 df bf
       -0.9193956479729692 -0.4955802263963065
000290 58 61 fb 4f c8 ca f1 bf d0 b0 53 a9 6d 16 ed bf
       -1.112007439069279 -0.9089878375212042
0002a0 48 7f 36 33 62 e9 e7 3f 50 1d b3 bf 3c 88 e0 bf
       0.7472392082454258 -0.5166305297979452
0002b0 00 b2 18 eb d5 09 b2 bf d0 5f 5a da 2d 6e e6 bf
       -0.07046257962856117 -0.700949598761321
0002c0 a0 30 71 7b b8 1f e8 bf 28 1c 2b ca 76 fa e0 bf
       -0.753872147653528 -0.5305742214776545
0002d0 a0 62 8b 6a 3f e9 cc 3f 80 6b 34 2b 7c 73 af bf
       0.22586815550200345 -0.06142795588876648
0002e0 d0 f2 e8 7a 89 55 f2 bf 40 19 f7 b5 9e 21 e4 bf
       -1.1458830643816107 -0.6291039995201473
0002f0 b0 e8 fa d4 4d 2f d1 bf a8 e1 c8 25 ab c9 ef bf
       -0.26851220892752803 -0.9933677423460283
000300 40 61 2c dd ca da d6 3f e0 a8 89 14 e4 ef c3 3f
       0.3571040305992206 0.1557583904535198
000310 80 7f 93 38 5c 6d c6 bf 70 cc 48 92 c0 54 d2 bf
       -0.17521240961559315 -0.2864228657301231
000320 e0 65 99 8d e0 fb e3 3f 60 79 38 ca 7f a2 c5 3f
       0.6244967237100205 0.1690215814023288
000330 40 b8 e9 d0 ac 83 b6 bf 00 70 f8 2b 32 8d b5 3f
       -0.0879467020074296 0.08418572972772154
000340 f8 b8 e1 20 3a 91 f5 bf 30 56 8d e7 6c ba e4 bf
       -1.3479558262293363 -0.647757007837475
000350 08 41 07 2c 67 57 ee 3f f0 aa cc e4 a4 76 ea 3f
       0.9481693134239615 0.826982924341193
000360 70 c1 e3 f5 d4 37 df bf b0 09 ac fc a5 df df 3f
       -0.4877827073351204 0.4980254142284606
000370 e0 2a f2 73 4a c3 e3 bf 30 b4 e9 1a 08 8c d6 3f
       -0.6175892128533995 0.35229685428822943
000380 b8 dc d3 71 30 ba e2 3f 20 90 20 e7 3e 31 c1 3f
       0.5852281783289959 0.13431535993106625
000390 c8 2d fc c4 15 5a e0 bf 70 9f 7a b0 62 ea e9 bf
       -0.510996708618614 -0.8098615118842485
0003a0 d0 bf 8d 12 c9 f4 db bf 40 b2 89 2f a6 69 cb bf
       -0.4368155175388866 -0.21416165658173902
0003b0 40 e3 8e 78 18 24 e8 3f 90 5c 7f 45 32 50 e2 3f
       0.7544061998988596 0.5722895963071029
0003c0 a4 75 a4 0a 0f 57 f3 bf 14 9a a6 7c ec f8 f0 bf
       -1.2087545791358503 -1.0607724064990451
0003d0 e0 f4 45 9e c0 7b c4 bf 80 44 33 c8 ac 87 a9 3f
       -0.16002662399470235 0.049863242567547594
0003e0 98 ca a4 51 1b 2b ee 3f 70 9c 3b 18 01 a6 d7 3f
       0.9427620501140437 0.36950709692468475
0003f0 1c ab 22 31 56 39 f6 3f 20 12 bf d2 d1 06 d4 3f
       1.3889982146599271 0.3129162366933844
000400 c0 5a 3e 2d d0 c3 d7 3f 38 90 21 2c fa aa e5 bf
       0.3713264886695633 -0.6771212446151429
000410 c0 e7 2b f8 c4 5b f0 3f 80 2c 58 d4 bf 2c e5 3f
       1.0224046415519155 0.6617125651695375
000420 c8 d1 59 1b c2 d3 ec 3f a0 64 b6 12 d0 10 c2 bf
       0.900849393291133 -0.1411380854959008
000430 14 15 dc 81 51 6a fa 3f 00 50 93 1e 0b 9a 9c bf
       1.650956637634697 -0.027931379071404194
000440 80 37 a8 3a ed fe c8 bf c4 0f 94 2b 4e 0d fc bf
       -0.19527974475971277 -1.7532483770637421
000450 a0 35 84 31 62 3c cf 3f 90 1c a1 a2 cf 43 d7 bf
       0.24403026025576668 -0.3635138595750016
000460 68 d9 a6 8f 07 e2 eb bf 30 d9 f6 ee c0 f0 dc bf
       -0.8713414960573518 -0.45219443641998947
000470 48 b1 2e 7a f1 79 f0 bf e0 8c 15 5d 64 94 ea bf
       -1.0297713063001357 -0.8306142633486182
000480 80 aa 87 6a 0f c8 ad bf d0 6c 87 c1 24 9f d2 3f
       -0.05816696334280369 0.290963353150528
000490 70 2a 77 25 9a b9 ec bf 24 ba 17 df 14 81 f2 3f
       -0.8976565105197789 1.1565140451963396
0004a0 60 4b 22 c0 78 2a d3 bf 00 f7 59 b8 6b 80 d8 bf
       -0.29946726573068894 -0.3828381824786078
0004b0 d0 2c c6 28 a4 57 f5 3f b0 0b a9 50 54 5a ed 3f
       1.333896788858329 0.91727653268787
0004c0 b4 d6 d6 8d 61 38 f0 bf 50 b8 ce 24 15 13 e9 bf
       -1.0137649098009378 -0.7835794180771334
0004d0 c8 9e aa a0 28 86 f2 3f 80 df 39 5f da f8 a7 bf
       1.1577535892519553 -0.046820472835803706
0004e0 10 33 ef 72 17 97 f2 bf 68 5f 12 30 e8 38 eb bf
       -1.1618875970481817 -0.8506966532613491
0004f0 f8 5c c7 69 0f 92 e4 3f d0 d7 9d d7 f5 2d e8 3f
       0.6428296152106716 0.755610390783426
000500 20 37 96 9d 1c 60 c5 bf 00 84 67 ca c6 95 79 bf
       -0.16699559874216963 -0.006246353650994685
000510 34 04 ee 87 28 c9 f3 bf 08 3c a5 07 8c b6 e7 3f
       -1.2366109189754413 0.7410335683179037
000520 e0 0a eb 6f 33 e8 c1 bf b8 20 00 ae 4a fd e4 3f
       -0.13989870991470976 0.6559193991133929
000530 c0 e3 5b cd eb a9 f6 3f 00 ad 3b 4b 7c 22 a0 bf
       1.416484644111037 -0.031513103660325115
000540 88 23 d1 7b 9f 58 e9 bf e8 66 55 98 ad 0f ee 3f
       -0.7920682352351927 0.939413831259313
000550 18 e8 cc 89 6a 5c f1 bf a0 fc 88 4c be 14 e0 bf
       -1.0850625403240937 -0.5025321478678002
000560 60 48 39 88 61 58 ca bf 80 16 40 33 90 ae d9 bf
       -0.20582217361021815 -0.4012794971934923
000570 40 0b 4a 65 ee f9 c9 3f c0 98 dc 4e da b5 bd bf
       0.20293979593051326 -0.11605610299429525
000580 6c 7f cd 00 61 95 f4 bf d0 d3 ee 34 61 88 f2 bf
       -1.2864694625240771 -1.158295828599183
000590 24 25 26 d0 11 ef f0 3f 70 f5 06 1a 02 88 d5 3f
       1.058366597253845 0.3364262823268609
0005a0 a0 83 e3 de b5 bf ca bf a0 14 dd ac 9d b2 d9 bf
       -0.20897553809393532 -0.4015268505211882
0005b0 b8 56 a6 37 07 4d ea 3f 80 6f b7 1e d8 4d cf 3f
       0.8219028555783643 0.2445631170256739
0005c0 80 36 4f c4 74 9a b8 bf 80 fb cb f0 b5 af e4 bf
       -0.0961068133612688 -0.646449060732138
0005d0 6c a7 6b b5 ac 8e f0 bf 20 68 4f a0 59 56 d6 3f
       -1.0348326765765377 0.349020391991532
0005e0 98 d7 bf dc 38 63 ec bf 08 8f 76 05 69 60 f5 bf
       -0.8871120749961277 -1.3360376561549305
0005f0 60 d3 8f 5e e2 88 dc bf 2c e9 8f 56 0f 06 f0 3f
       -0.44585475191643376 1.00147947133389
000600 c0 60 e9 c3 fe 14 dd bf 14 94 db 4d 52 30 f1 bf
       -0.4544064439010178 -1.074297241336585
000610 24 a2 58 12 73 76 f2 bf 00 89 1f 82 07 8b cf 3f
       -1.1539183346413973 0.24643033841773132
000620 08 e4 ef a1 23 77 f2 3f 40 cb fa 0b cb 0f b7 3f
       1.154086716238682 0.09008473436805975
000630 00 ea 56 a6 56 b4 b4 3f 74 76 40 19 5c 93 f5 bf
       0.08087674675963541 -1.3484765039824227
000640 44 63 ba e2 34 68 f5 bf a0 6c e6 31 c5 ed ce 3f
       -1.3379410606923594 0.24163117348220897
000650 80 e7 01 d6 fb 52 df 3f 70 99 6f 06 ef 82 da 3f
       0.48943992518581325 0.41424155834683685
000660 70 4d ff 05 2e bf d7 3f 60 3f 88 ba 50 8f c2 3f
       0.3710436876837866 0.14499863727587137
000670 40 5f 66 da 48 9f da 3f b8 43 29 5c 03 c6 f4 3f
       0.415971959382194 1.2983430481001346
000680 10 f3 12 e3 d6 56 e1 bf 50 fd 0a 3f 48 dd e0 bf
       -0.5418505129851798 -0.5270119887644942
000690 e0 67 ca 48 60 1e e7 3f 10 aa 8a c0 b6 a6 d2 3f
       0.722458021325334 0.2914254074372886
0006a0 b0 60 0f e9 ff 13 e2 bf 98 93 e9 a8 06 c5 00 40
       -0.564941363521049 2.096204108837309
0006b0 c0 e3 97 7b 03 0b e9 3f 20 cc 86 5a db 6b dc 3f
       0.7825944341594706 0.4440830596969949
0006c0 a0 57 5a 25 bc 34 cd 3f 70 97 a2 8d 8b 80 d9 3f
       0.22817184280273484 0.39847077209048276
0006d0 b4 3b 28 ce c4 74 f3 3f 00 ed c5 5d 4d 44 a7 bf
       1.2160080006612874 -0.04544297952358001
0006e0 f0 b1 c8 b0 fe c9 e3 3f a8 8f 83 ca 3f 63 f3 bf
       0.6184075787364787 -1.2117307577800407
0006f0 00 16 d9 1a cb fa e2 3f 80 da eb ac 8c be a6 3f
       0.5931144260763972 0.04442252741676089
000700 a8 16 24 13 08 d9 f5 bf a8 c7 9c 35 5a 3b f0 bf
       -1.3654862163252037 -1.0144903272853103
000710 18 c4 78 cf 04 bd f5 3f d8 ee 30 3b 20 e3 eb bf
       1.3586471657147339 -0.8714753299786606
000720 d0 f8 cf bf e3 f4 db bf 90 99 0b 24 e1 9d d7 bf
       -0.43682187778166526 -0.36901119728136056
000730 00 95 94 e9 14 06 ef 3f 58 17 59 e6 f1 a5 e6 3f
       0.9694923936955604 0.707756948374235
000740 c0 6f 7e 78 92 c3 e9 3f 34 8d d3 6b 78 c3 fb 3f
       0.8051235535999623 1.7352222644775113
000750 80 59 2e 69 58 79 bf 3f 10 88 06 bc 8f be eb 3f
       0.12294533317467504 0.867011897313434
000760 c0 cd b1 93 a5 0d b8 3f 28 71 86 03 a4 e0 eb 3f
       0.09395823341201659 0.8711719578600752
000770 00 c2 a7 26 19 58 a4 bf 80 75 f4 04 b1 27 a4 3f
       -0.03973463627687934 0.039365321974609735
000780 24 93 80 b2 3f 07 f0 bf a0 7d e9 15 ce 61 dc bf
       -1.0017697308296158 -0.4434695447907533
000790 40 53 44 95 7b a8 b2 bf a0 5e 93 81 0f 34 e8 bf
       -0.07288334268771468 -0.7563550501608525
0007a0 70 59 cd c7 ad f9 eb 3f f8 32 db ba 6f d5 e6 bf
       0.8742283728013671 -0.7135542535339416
0007b0 f0 b7 78 fb 9b 61 dd 3f 80 37 89 a5 69 e9 d1 3f
       0.45908259923714834 0.2798713795244723
0007c0 88 82 fb 98 21 6e e5 bf c8 35 2d 14 2f 73 e9 3f
       -0.6696937549532587 0.7953105348657852
0007d0 b8 e1 d3 96 e3 de e5 3f a8 bb dd 3a e3 a8 e5 bf
       0.6834581323483269 -0.6768661641816509
0007e0 c0 7d f3 ad 86 74 b2 bf c0 57 ac 20 31 26 d4 3f
       -0.07209054705480522 0.3148310488771777
0007f0 80 dd 4c 58 1e b7 b4 bf 68 95 69 08 51 25 f5 bf
       -0.08091916709678593 -1.3216104820833952
