csqpt-data/cs-a-0.55-phi-5.03/X-theta-1.80.npy (npy, 8128 bytes, 1 tensors)

array f8 [1000]
00000000: 0047 d39f b2ca c93f 0048 9a6b 2447 8a3f
00000010: e033 ca31 2567 ca3f 2090 d07e b87a cfbf
00000020: a0a3 659d 438a c73f 2061 c596 3eca d73f
00000030: 48c2 eb5b ee77 e33f 10ed 88bc 865f e2bf
00000040: 8c32 dac6 3026 f33f c03a 54ce 0c82 dabf
00000050: 807a ae24 e8f7 aa3f 1437 f45e 350f f23f
00000060: 943c 7e27 a20d fc3f 2047 bbcf 7bab d83f
00000070: 400a 6691 7388 d93f 804d 0333 20aa cf3f
00000080: 504e d5be cd82 e13f c04c 022a 1e16 dbbf
00000090: f033 bf9c 5351 d23f b8cd 2de7 9c25 ec3f
000000a0: 20f9 203a 8915 d23f 00e2 b811 853f 833f
000000b0: 8039 4c85 ad06 ec3f 400d e30b 8a71 e23f
000000c0: 004a cebd e8fe 84bf 00e0 15a3 2b79 55bf
000000d0: 403e 0268 602d e73f 4007 9124 7d08 d63f
000000e0: a85c a3d1 4d27 e4bf dc8e d27d 0737 f43f
000000f0: 8062 a0f1 09b2 b0bf e8e0 a429 9f1c e23f
00000100: 4053 5eec a435 e73f 00b3 ad5e f907 cc3f
00000110: 00b9 49ff fbfb bd3f a059 616a f1fb d13f
00000120: 684e 3d15 607c e83f 28ae a45c 8a6b e0bf
00000130: 6098 f679 73cb d83f 40cc cb30 9593 f03f
00000140: 404b 35bb 40f4 de3f 2093 190e 2ca2 d0bf
00000150: 8812 3467 46c4 eebf 38d9 8a1f 22f3 ea3f
00000160: 003a feb9 85fd d2bf d014 c121 050a ec3f
00000170: 60a2 0e61 a362 d03f 608c 3452 3917 dbbf
00000180: 600a 8014 3dfc dc3f b843 3d66 3571 ef3f
00000190: 9095 24d6 5034 e93f c066 13d9 16c4 b13f
000001a0: 3014 1155 2323 da3f 40be d7c6 84bc c73f
000001b0: 0062 27f8 1c86 c33f 487f 3633 62e9 e73f
000001c0: 501d b3bf 3c88 e0bf d05f 5ada 2d6e e6bf
000001d0: 2088 548b 6ad7 cb3f a062 8b6a 3fe9 cc3f
000001e0: 806b 342b 7c73 afbf b0e8 fad4 4d2f d1bf
000001f0: a8e1 c825 abc9 efbf 4061 2cdd cada d63f
00000200: e0a8 8914 e4ef c33f e065 998d e0fb e33f
00000210: 6079 38ca 7fa2 c53f 0070 f82b 328d b53f
00000220: 3056 8de7 6cba e4bf 0841 072c 6757 ee3f
00000230: f0aa cce4 a476 ea3f b009 acfc a5df df3f
00000240: e02a f273 4ac3 e3bf 30b4 e91a 088c d63f
00000250: b8dc d371 30ba e23f 2090 20e7 3e31 c13f
00000260: 40e3 8e78 1824 e83f 905c 7f45 3250 e23f
00000270: e0f4 459e c07b c4bf 8044 33c8 ac87 a93f
00000280: 98ca a451 1b2b ee3f 709c 3b18 01a6 d73f
00000290: 8091 0f7d afcf d83f 2012 bfd2 d106 d43f
000002a0: c05a 3e2d d0c3 d73f 3890 212c faaa e5bf
000002b0: c0e7 2bf8 c45b f03f 802c 58d4 bf2c e53f
000002c0: c8d1 591b c2d3 ec3f 8037 a83a edfe c8bf
000002d0: a035 8431 623c cf3f 80aa 876a 0fc8 adbf
000002e0: d06c 87c1 249f d23f 24ba 17df 1481 f23f
000002f0: b00b a950 545a ed3f c89e aaa0 2886 f23f
00000300: 80df 395f daf8 a7bf f85c c769 0f92 e43f
00000310: d0d7 9dd7 f52d e83f 2037 969d 1c60 c5bf
00000320: 0084 67ca c695 79bf 083c a507 8cb6 e73f
00000330: b820 00ae 4afd e43f 00ad 3b4b 7c22 a0bf
00000340: e866 5598 ad0f ee3f a0fc 884c be14 e0bf
00000350: 9030 2349 9c97 e23f 400b 4a65 eef9 c93f
00000360: c098 dc4e dab5 bdbf 2425 26d0 11ef f03f
00000370: 70f5 061a 0288 d53f a083 e3de b5bf cabf
00000380: b856 a637 074d ea3f 806f b71e d84d cf3f
00000390: f0f0 b62b 0462 d13f 2068 4fa0 5956 d63f
000003a0: 2ce9 8f56 0f06 f03f c060 e9c3 fe14 ddbf
000003b0: 0089 1f82 078b cf3f 08e4 efa1 2377 f23f
000003c0: 40cb fa0b cb0f b73f 00ea 56a6 56b4 b43f
000003d0: a06c e631 c5ed ce3f 80e7 01d6 fb52 df3f
000003e0: 7099 6f06 ef82 da3f 704d ff05 2ebf d73f
000003f0: 603f 88ba 508f c23f 405f 66da 489f da3f
00000400: b843 295c 03c6 f43f e067 ca48 601e e73f
00000410: 10aa 8ac0 b6a6 d23f c0e3 977b 030b e93f
00000420: 20cc 865a db6b dc3f a057 5a25 bc34 cd3f
00000430: 7097 a28d 8b80 d93f b43b 28ce c474 f33f
00000440: 00ed c55d 4d44 a7bf f0b1 c8b0 fec9 e33f
00000450: 0016 d91a cbfa e23f 80da ebac 8cbe a63f
00000460: a8c7 9c35 5a3b f0bf 18c4 78cf 04bd f53f
00000470: 9099 0b24 e19d d7bf 0095 94e9 1406 ef3f
00000480: 5817 59e6 f1a5 e63f c06f 7e78 92c3 e93f
00000490: 8059 2e69 5879 bf3f 1088 06bc 8fbe eb3f
000004a0: c0cd b193 a50d b83f 2871 8603 a4e0 eb3f
000004b0: 00c2 a726 1958 a4bf c04f e7cf 9669 e53f
000004c0: 8075 f404 b127 a43f a07d e915 ce61 dcbf
000004d0: 4053 4495 7ba8 b2bf 7059 cdc7 adf9 eb3f
000004e0: f0b7 78fb 9b61 dd3f 8037 89a5 69e9 d13f
000004f0: c835 2d14 2f73 e93f b8e1 d396 e3de e53f
00000500: c07d f3ad 8674 b2bf c057 ac20 3126 d43f
00000510: 505e ca57 276b d6bf 80bf 3c9b bb0d ddbf
00000520: 100e 4d23 d742 dd3f 30da 9995 7a57 d53f
00000530: 80db 1c4c ffc1 c3bf f83f 4443 a8b5 ea3f
00000540: 604f 36e6 9c83 e0bf 109b 9e73 877b e73f
00000550: f040 d311 12f9 d03f b077 27e6 08f8 d0bf
00000560: c09b 3212 062e b63f 20f9 ac70 4423 ec3f
00000570: 804c b7e1 324e c43f d0d3 3859 25cd ddbf
00000580: e88d 011f 01ac f23f 00bd 2f40 6098 aabf
00000590: 80ce afc2 a3e0 bb3f 8092 fc1a 532d c13f
000005a0: 0009 ca4f e173 dc3f a0c0 4862 d9bd c8bf
000005b0: d802 ed16 cd60 e33f 6862 483c 54f4 e43f
000005c0: c89d f5d7 e151 e73f c87d 240e d600 e13f
000005d0: 2059 5db2 ae87 d7bf 0892 3a53 11c0 e13f
000005e0: 7001 99cf d9e3 d83f 586c ab7b 330a e23f
000005f0: c0fb c6bb 8c42 c5bf 4037 91a5 5b5a cabf
00000600: d007 c0ff 4707 d43f e042 92ed abc9 c6bf
00000610: 4074 b1c9 c074 e7bf 0802 1a47 a428 e53f
00000620: 807a c878 ad03 d33f 3051 8b9a a78f d83f
00000630: 90aa 877e 269b d03f c0fa 5cf4 2fc4 d0bf
00000640: 2088 383e 6065 e63f d8f0 d505 fcb8 eebf
00000650: e0d2 8c26 9e81 c03f 102d 826d 70ed d13f
00000660: 306d 1e07 9fe2 da3f 007a 3235 525e df3f
00000670: 908c 9fe2 fc85 e73f 2060 ea9b 3db3 ce3f
00000680: 4052 aeab a549 d13f 0062 132e 6ae5 de3f
00000690: 9857 24c4 3d19 eb3f 80a7 6f73 f368 a4bf
000006a0: c0fc f7c7 a334 b73f 4cf5 a923 ed8c f43f
000006b0: 74d6 845f ca5c f33f fcdb 8e67 97a9 f13f
000006c0: 0054 3219 fb22 963f 2010 8dfa e0fa db3f
000006d0: 9021 f8aa 3042 e63f 10fa d8f9 4400 d2bf
000006e0: a09f 5317 637f e3bf 60d9 f7a9 53f6 d6bf
000006f0: 00bc e260 4ab3 783f e0ab 80c3 0a17 c8bf
00000700: e09e b9e4 cf77 d5bf 9025 0667 27b2 e33f
00000710: a897 affc 20e0 e83f 7815 8e4b 0c1e e83f
00000720: 20a3 4f34 aa6c c93f 10db e669 e8c2 e23f
00000730: 6c8b 5e8a 885a f83f 7032 a5c8 9426 dcbf
00000740: d09b 2867 f716 d73f 1825 5db6 3602 e03f
00000750: 08c3 5d54 68e1 e63f e0e2 8668 8a4c d33f
00000760: 18f9 fa95 e442 f83f 4065 3a22 6436 c23f
00000770: 0854 3321 e0fc e7bf 20c8 f524 30e6 c73f
00000780: 0046 7786 d8d6 ae3f 705e e4b9 e85c e03f
00000790: b02f 8059 b926 e23f c809 0c4a d308 e1bf
000007a0: c08b ef4e ace2 c9bf 480a 37b1 da21 e43f
000007b0: 244e ecfb 4717 f53f b0e7 caa4 b6a1 ec3f
000007c0: 005b 2575 3b71 b2bf 080b f403 ea05 ee3f
000007d0: 80b3 608b 3d7b b33f c84d 9966 0c94 ec3f
000007e0: a05c 978a f097 d2bf 40db bac7 f03d d1bf
000007f0: c000 43c3 2040 d63f a0da 2331 5cdd c4bf
0.20149834445924597 0.012831005605480783 0.2062727444757959 -0.2459326380932234 0.18390698609735256 0.37171902393085254 0.6083900256472328 -0.5741609270402552
1.1968238608998574 -0.4141876234943247 0.052672628858307924 1.1287130078448557 1.7533284704875642 0.3854665306690652 0.3989533347995895 0.24737932673324892
0.5472172476970147 -0.4232249651187878 0.2862137823802291 0.8795914187634741 0.28256445576325184 0.009398498156870438 0.875815162989781 0.5763597709814476
-0.010251825611509169 -0.0013106275694934055 0.7242891341611042 0.34426811762761034 -0.6297978491301324 1.263434878820525 -0.0652166571529822 0.5659938634262547
0.7252983681270067 0.2189933502480912 0.11712622625939062 0.281002382170664 0.7651825346787975 -0.5131274995268926 0.3874176684424864 1.036030951127728
0.4836580112652662 -0.25989819886153676 -0.9614593520824011 0.8421793571531344 -0.29672377742181766 0.8762231501829323 0.2560203979324225 -0.42329247501237965
0.4528954220005854 0.9825694081174481 0.7876362020949035 0.06939833450033017 0.4083946543435699 0.18544063290709012 0.1525303088844936 0.7472392082454258
-0.5166305297979452 -0.700949598761321 0.21751148036224865 0.22586815550200345 -0.06142795588876648 -0.26851220892752803 -0.9933677423460283 0.3571040305992206
0.1557583904535198 0.6244967237100205 0.1690215814023288 0.08418572972772154 -0.647757007837475 0.9481693134239615 0.826982924341193 0.4980254142284606
-0.6175892128533995 0.35229685428822943 0.5852281783289959 0.13431535993106625 0.7544061998988596 0.5722895963071029 -0.16002662399470235 0.049863242567547594
0.9427620501140437 0.36950709692468475 0.38767611706705196 0.3129162366933844 0.3713264886695633 -0.6771212446151429 1.0224046415519155 0.6617125651695375
0.900849393291133 -0.19527974475971277 0.24403026025576668 -0.05816696334280369 0.290963353150528 1.1565140451963396 0.91727653268787 1.1577535892519553
-0.046820472835803706 0.6428296152106716 0.755610390783426 -0.16699559874216963 -0.006246353650994685 0.7410335683179037 0.6559193991133929 -0.031513103660325115
0.939413831259313 -0.5025321478678002 0.5810071400133143 0.20293979593051326 -0.11605610299429525 1.058366597253845 0.3364262823268609 -0.20897553809393532
0.8219028555783643 0.2445631170256739 0.2716074396992232 0.349020391991532 1.00147947133389 -0.4544064439010178 0.24643033841773132 1.154086716238682
0.09008473436805975 0.08087674675963541 0.24163117348220897 0.48943992518581325 0.41424155834683685 0.3710436876837866 0.14499863727587137 0.415971959382194
1.2983430481001346 0.722458021325334 0.2914254074372886 0.7825944341594706 0.4440830596969949 0.22817184280273484 0.39847077209048276 1.2160080006612874
-0.04544297952358001 0.6184075787364787 0.5931144260763972 0.04442252741676089 -1.0144903272853103 1.3586471657147339 -0.36901119728136056 0.9694923936955604
0.707756948374235 0.8051235535999623 0.12294533317467504 0.867011897313434 0.09395823341201659 0.8711719578600752 -0.03973463627687934 0.6691392956367892
0.039365321974609735 -0.4434695447907533 -0.07288334268771468 0.8742283728013671 0.45908259923714834 0.2798713795244723 0.7953105348657852 0.6834581323483269
-0.07209054705480522 0.3148310488771777 -0.35029014180461093 -0.45396318588154116 0.45720461318362116 0.3334642849871754 -0.15435782638970963 0.8346749604988863
-0.5160660263377217 0.733829236812058 0.26520206204169394 -0.265138840446407 0.08663976616172331 0.8793050957390598 0.1586364366654358 -0.46564611161312275
1.166993256680934 -0.05194378646398867 0.10889647963613847 0.13419569795327746 0.44457276145853086 -0.1932937364485996 0.6055665443201077 0.6548253228566638
0.7287453859288968 0.531352069494397 -0.3676563970415305 0.5546957612573928 0.38890691064081917 0.5637452521726898 -0.16609343689739653 -0.20588250717485757
0.3129444119987257 -0.1780295286194109 -0.7330020846671985 0.6612111462309835 0.2970994643709801 0.38376798717696925 0.25946962696495124 -0.2619743238791834
0.6998749938250093 -0.9600811113337171 0.12895562059715981 0.28011713689984763 0.4200818604965262 0.49013190455471545 0.7351059366450432 0.23984499085486366
0.2701200653621392 0.48275236606198746 0.8468312102220237 -0.039863212434126716 0.09064696914718962 1.284405841171366 1.2101539355475355 1.1039041562305547
0.02161781636512572 0.43718742816804657 0.6955798472636605 -0.281266445152057 -0.6093001800154418 -0.3587845954747504 0.006030359783991024 -0.18820318742777342
-0.33543774925645486 0.6154973041713436 0.777359479453243 0.7536679721530808 0.1986286883759698 0.5862924641031402 1.5221028714228977 -0.4398548087527052
0.36077675890049665 0.5002702295106785 0.7150155685213528 0.301546670987177 1.5163312777145332 0.14228488608640966 -0.7496185921141896 0.18671228222552916
0.06023289338521565 0.5113414412216581 0.5672270534573638 -0.5323273130637114 -0.2022300134113646 0.6291326009016496 1.3181838837380235 0.8947404116254258
-0.07204028711326416 0.9382219388211022 0.07609924938942747 0.8930723194011359 -0.29052365812590075 -0.2694055510032065 0.34766406124618854 -0.1630053749028848
