Data-src/cs-a-0.78-phi-5.03/X-theta-1.80.npy (npy, 8128 bytes, 1 tensors)

array f8 [1000]
000000 00 47 d3 9f b2 ca c9 3f 00 48 9a 6b 24 47 8a 3f
       0.20149834445924597 0.012831005605480783
000010 e0 33 ca 31 25 67 ca 3f 20 90 d0 7e b8 7a cf bf
       0.2062727444757959 -0.2459326380932234
000020 a0 a3 65 9d 43 8a c7 3f e0 9c be c7 86 9a ef 3f
       0.18390698609735256 0.9876130963574745
000030 20 61 c5 96 3e ca d7 3f 48 c2 eb 5b ee 77 e3 3f
       0.37171902393085254 0.6083900256472328
000040 10 ed 88 bc 86 5f e2 bf 8c 32 da c6 30 26 f3 3f
       -0.5741609270402552 1.1968238608998574
000050 80 7a ae 24 e8 f7 aa 3f 14 37 f4 5e 35 0f f2 3f
       0.052672628858307924 1.1287130078448557
000060 94 3c 7e 27 a2 0d fc 3f 20 47 bb cf 7b ab d8 3f
       1.7533284704875642 0.3854665306690652
000070 40 0a 66 91 73 88 d9 3f 80 4d 03 33 20 aa cf 3f
       0.3989533347995895 0.24737932673324892
000080 50 4e d5 be cd 82 e1 3f e0 c6 40 ad 56 07 f1 3f
       0.5472172476970147 1.0642916457840599
000090 f0 33 bf 9c 53 51 d2 3f b8 cd 2d e7 9c 25 ec 3f
       0.2862137823802291 0.8795914187634741
0000a0 20 f9 20 3a 89 15 d2 3f 00 e2 b8 11 85 3f 83 3f
       0.28256445576325184 0.009398498156870438
0000b0 80 39 4c 85 ad 06 ec 3f 40 0d e3 0b 8a 71 e2 3f
       0.875815162989781 0.5763597709814476
0000c0 00 4a ce bd e8 fe 84 bf 00 e0 15 a3 2b 79 55 bf
       -0.010251825611509169 -0.0013106275694934055
0000d0 30 5d c5 40 3a 09 fa 3f 40 3e 02 68 60 2d e7 3f
       1.627252820025955 0.7242891341611042
0000e0 40 07 91 24 7d 08 d6 3f a8 5c a3 d1 4d 27 e4 bf
       0.34426811762761034 -0.6297978491301324
0000f0 dc 8e d2 7d 07 37 f4 3f d8 88 4b bb 9f 68 f7 3f
       1.263434878820525 1.4630429569447667
000100 e8 e0 a4 29 9f 1c e2 3f 40 53 5e ec a4 35 e7 3f
       0.5659938634262547 0.7252983681270067
000110 00 b3 ad 5e f9 07 cc 3f 00 b9 49 ff fb fb bd 3f
       0.2189933502480912 0.11712622625939062
000120 a0 59 61 6a f1 fb d1 3f 68 4e 3d 15 60 7c e8 3f
       0.281002382170664 0.7651825346787975
000130 28 ae a4 5c 8a 6b e0 bf 60 98 f6 79 73 cb d8 3f
       -0.5131274995268926 0.3874176684424864
000140 40 cc cb 30 95 93 f0 3f 40 4b 35 bb 40 f4 de 3f
       1.036030951127728 0.4836580112652662
000150 ac f9 5d 9e 38 b1 f1 3f 88 12 34 67 46 c4 ee bf
       1.1057668863501062 -0.9614593520824011
000160 38 d9 8a 1f 22 f3 ea 3f d0 14 c1 21 05 0a ec 3f
       0.8421793571531344 0.8762231501829323
000170 60 a2 0e 61 a3 62 d0 3f 60 8c 34 52 39 17 db bf
       0.2560203979324225 -0.42329247501237965
000180 60 0a 80 14 3d fc dc 3f b8 43 3d 66 35 71 ef 3f
       0.4528954220005854 0.9825694081174481
000190 90 95 24 d6 50 34 e9 3f c0 66 13 d9 16 c4 b1 3f
       0.7876362020949035 0.06939833450033017
0001a0 30 14 11 55 23 23 da 3f 40 be d7 c6 84 bc c7 3f
       0.4083946543435699 0.18544063290709012
0001b0 00 62 27 f8 1c 86 c3 3f 48 7f 36 33 62 e9 e7 3f
       0.1525303088844936 0.7472392082454258
0001c0 50 1d b3 bf 3c 88 e0 bf a0 62 8b 6a 3f e9 cc 3f
       -0.5166305297979452 0.22586815550200345
0001d0 80 6b 34 2b 7c 73 af bf b0 e8 fa d4 4d 2f d1 bf
       -0.06142795588876648 -0.26851220892752803
0001e0 40 61 2c dd ca da d6 3f e0 a8 89 14 e4 ef c3 3f
       0.3571040305992206 0.1557583904535198
0001f0 e0 65 99 8d e0 fb e3 3f 60 79 38 ca 7f a2 c5 3f
       0.6244967237100205 0.1690215814023288
000200 00 70 f8 2b 32 8d b5 3f 08 41 07 2c 67 57 ee 3f
       0.08418572972772154 0.9481693134239615
000210 f0 aa cc e4 a4 76 ea 3f b0 09 ac fc a5 df df 3f
       0.826982924341193 0.4980254142284606
000220 30 b4 e9 1a 08 8c d6 3f b8 dc d3 71 30 ba e2 3f
       0.35229685428822943 0.5852281783289959
000230 40 e3 8e 78 18 24 e8 3f 90 5c 7f 45 32 50 e2 3f
       0.7544061998988596 0.5722895963071029
000240 e0 f4 45 9e c0 7b c4 bf 80 44 33 c8 ac 87 a9 3f
       -0.16002662399470235 0.049863242567547594
000250 98 ca a4 51 1b 2b ee 3f 70 9c 3b 18 01 a6 d7 3f
       0.9427620501140437 0.36950709692468475
000260 80 91 0f 7d af cf d8 3f 1c ab 22 31 56 39 f6 3f
       0.38767611706705196 1.3889982146599271
000270 20 12 bf d2 d1 06 d4 3f c0 5a 3e 2d d0 c3 d7 3f
       0.3129162366933844 0.3713264886695633
000280 c0 e7 2b f8 c4 5b f0 3f 80 2c 58 d4 bf 2c e5 3f
       1.0224046415519155 0.6617125651695375
000290 c8 d1 59 1b c2 d3 ec 3f a0 35 84 31 62 3c cf 3f
       0.900849393291133 0.24403026025576668
0002a0 d0 6c 87 c1 24 9f d2 3f 24 ba 17 df 14 81 f2 3f
       0.290963353150528 1.1565140451963396
0002b0 d0 2c c6 28 a4 57 f5 3f b0 0b a9 50 54 5a ed 3f
       1.333896788858329 0.91727653268787
0002c0 c8 9e aa a0 28 86 f2 3f 80 df 39 5f da f8 a7 bf
       1.1577535892519553 -0.046820472835803706
0002d0 f8 5c c7 69 0f 92 e4 3f d0 d7 9d d7 f5 2d e8 3f
       0.6428296152106716 0.755610390783426
0002e0 00 84 67 ca c6 95 79 bf 08 3c a5 07 8c b6 e7 3f
       -0.006246353650994685 0.7410335683179037
0002f0 b8 20 00 ae 4a fd e4 3f 00 ad 3b 4b 7c 22 a0 bf
       0.6559193991133929 -0.031513103660325115
000300 e8 66 55 98 ad 0f ee 3f 70 54 c8 29 7b d4 e5 3f
       0.939413831259313 0.6821876350465015
000310 a0 fc 88 4c be 14 e0 bf 90 30 23 49 9c 97 e2 3f
       -0.5025321478678002 0.5810071400133143
000320 40 0b 4a 65 ee f9 c9 3f 24 25 26 d0 11 ef f0 3f
       0.20293979593051326 1.058366597253845
000330 70 f5 06 1a 02 88 d5 3f b8 56 a6 37 07 4d ea 3f
       0.3364262823268609 0.8219028555783643
000340 80 6f b7 1e d8 4d cf 3f f0 f0 b6 2b 04 62 d1 3f
       0.2445631170256739 0.2716074396992232
000350 20 68 4f a0 59 56 d6 3f 2c e9 8f 56 0f 06 f0 3f
       0.349020391991532 1.00147947133389
000360 c0 60 e9 c3 fe 14 dd bf 00 89 1f 82 07 8b cf 3f
       -0.4544064439010178 0.24643033841773132
000370 08 e4 ef a1 23 77 f2 3f 40 cb fa 0b cb 0f b7 3f
       1.154086716238682 0.09008473436805975
000380 00 ea 56 a6 56 b4 b4 3f a0 6c e6 31 c5 ed ce 3f
       0.08087674675963541 0.24163117348220897
000390 80 e7 01 d6 fb 52 df 3f 70 99 6f 06 ef 82 da 3f
       0.48943992518581325 0.41424155834683685
0003a0 70 4d ff 05 2e bf d7 3f 60 3f 88 ba 50 8f c2 3f
       0.3710436876837866 0.14499863727587137
0003b0 40 5f 66 da 48 9f da 3f b8 43 29 5c 03 c6 f4 3f
       0.415971959382194 1.2983430481001346
0003c0 e0 67 ca 48 60 1e e7 3f 10 aa 8a c0 b6 a6 d2 3f
       0.722458021325334 0.2914254074372886
0003d0 98 93 e9 a8 06 c5 00 40 c0 e3 97 7b 03 0b e9 3f
       2.096204108837309 0.7825944341594706
0003e0 20 cc 86 5a db 6b dc 3f a0 57 5a 25 bc 34 cd 3f
       0.4440830596969949 0.22817184280273484
0003f0 70 97 a2 8d 8b 80 d9 3f b4 3b 28 ce c4 74 f3 3f
       0.39847077209048276 1.2160080006612874
000400 00 ed c5 5d 4d 44 a7 bf f0 b1 c8 b0 fe c9 e3 3f
       -0.04544297952358001 0.6184075787364787
000410 00 16 d9 1a cb fa e2 3f 80 da eb ac 8c be a6 3f
       0.5931144260763972 0.04442252741676089
000420 18 c4 78 cf 04 bd f5 3f 00 95 94 e9 14 06 ef 3f
       1.3586471657147339 0.9694923936955604
000430 58 17 59 e6 f1 a5 e6 3f c0 6f 7e 78 92 c3 e9 3f
       0.707756948374235 0.8051235535999623
000440 80 59 2e 69 58 79 bf 3f 10 88 06 bc 8f be eb 3f
       0.12294533317467504 0.867011897313434
000450 c0 cd b1 93 a5 0d b8 3f 28 71 86 03 a4 e0 eb 3f
       0.09395823341201659 0.8711719578600752
000460 00 c2 a7 26 19 58 a4 bf c0 4f e7 cf 96 69 e5 3f
       -0.03973463627687934 0.6691392956367892
000470 80 75 f4 04 b1 27 a4 3f d8 d0 6e ae 80 5e e1 3f
       0.039365321974609735 0.542785969437797
000480 a0 7d e9 15 ce 61 dc bf 40 53 44 95 7b a8 b2 bf
       -0.4434695447907533 -0.07288334268771468
000490 70 59 cd c7 ad f9 eb 3f f0 b7 78 fb 9b 61 dd 3f
       0.8742283728013671 0.45908259923714834
0004a0 80 37 89 a5 69 e9 d1 3f c8 35 2d 14 2f 73 e9 3f
       0.2798713795244723 0.7953105348657852
0004b0 b8 e1 d3 96 e3 de e5 3f c0 7d f3 ad 86 74 b2 bf
       0.6834581323483269 -0.07209054705480522
0004c0 c0 57 ac 20 31 26 d4 3f d8 90 b8 6c 07 50 e6 3f
       0.3148310488771777 0.6972691653686764
0004d0 50 5e ca 57 27 6b d6 bf 80 bf 3c 9b bb 0d dd bf
       -0.35029014180461093 -0.45396318588154116
0004e0 10 0e 4d 23 d7 42 dd 3f 30 da 99 95 7a 57 d5 3f
       0.45720461318362116 0.3334642849871754
0004f0 e0 54 27 fc 2f 14 f0 3f 80 db 1c 4c ff c1 c3 bf
       1.0049285745383756 -0.15435782638970963
000500 f8 3f 44 43 a8 b5 ea 3f 60 4f 36 e6 9c 83 e0 bf
       0.8346749604988863 -0.5160660263377217
000510 c8 a0 f8 00 58 2d e1 3f 10 9b 9e 73 87 7b e7 3f
       0.536785127541429 0.733829236812058
000520 f0 40 d3 11 12 f9 d0 3f b8 54 23 37 35 14 e5 3f
       0.26520206204169394 0.6587167813219343
000530 c0 9b 32 12 06 2e b6 3f 20 f9 ac 70 44 23 ec 3f
       0.08663976616172331 0.8793050957390598
000540 80 4c b7 e1 32 4e c4 3f d0 d3 38 59 25 cd dd bf
       0.1586364366654358 -0.46564611161312275
000550 e8 8d 01 1f 01 ac f2 3f 80 ce af c2 a3 e0 bb 3f
       1.166993256680934 0.10889647963613847
000560 80 92 fc 1a 53 2d c1 3f 04 e5 62 a7 35 f9 f1 3f
       0.13419569795327746 1.123342183926355
000570 00 09 ca 4f e1 73 dc 3f a0 c0 48 62 d9 bd c8 bf
       0.44457276145853086 -0.1932937364485996
000580 d8 02 ed 16 cd 60 e3 3f 68 62 48 3c 54 f4 e4 3f
       0.6055665443201077 0.6548253228566638
000590 c8 9d f5 d7 e1 51 e7 3f c8 7d 24 0e d6 00 e1 3f
       0.7287453859288968 0.531352069494397
0005a0 20 59 5d b2 ae 87 d7 bf 08 92 3a 53 11 c0 e1 3f
       -0.3676563970415305 0.5546957612573928
0005b0 70 01 99 cf d9 e3 d8 3f 58 6c ab 7b 33 0a e2 3f
       0.38890691064081917 0.5637452521726898
0005c0 d0 07 c0 ff 47 07 d4 3f 08 02 1a 47 a4 28 e5 3f
       0.3129444119987257 0.6612111462309835
0005d0 80 7a c8 78 ad 03 d3 3f 30 51 8b 9a a7 8f d8 3f
       0.2970994643709801 0.38376798717696925
0005e0 90 aa 87 7e 26 9b d0 3f c0 fa 5c f4 2f c4 d0 bf
       0.25946962696495124 -0.2619743238791834
0005f0 20 88 38 3e 60 65 e6 3f e0 d2 8c 26 9e 81 c0 3f
       0.6998749938250093 0.12895562059715981
000600 84 3d 53 71 e9 82 f2 3f 30 6d 1e 07 9f e2 da 3f
       1.156960909534832 0.4200818604965262
000610 00 7a 32 35 52 5e df 3f 90 8c 9f e2 fc 85 e7 3f
       0.49013190455471545 0.7351059366450432
000620 20 60 ea 9b 3d b3 ce 3f a8 dd 8d 76 f9 30 ed 3f
       0.23984499085486366 0.9122283282767301
000630 40 52 ae ab a5 49 d1 3f 00 62 13 2e 6a e5 de 3f
       0.2701200653621392 0.48275236606198746
000640 18 61 f3 5a 24 46 e7 3f 98 57 24 c4 3d 19 eb 3f
       0.727312257421576 0.8468312102220237
000650 80 a7 6f 73 f3 68 a4 bf c0 fc f7 c7 a3 34 b7 3f
       -0.039863212434126716 0.09064696914718962
000660 4c f5 a9 23 ed 8c f4 3f 74 d6 84 5f ca 5c f3 3f
       1.284405841171366 1.2101539355475355
000670 fc db 8e 67 97 a9 f1 3f 00 54 32 19 fb 22 96 3f
       1.1039041562305547 0.02161781636512572
000680 20 10 8d fa e0 fa db 3f 90 21 f8 aa 30 42 e6 3f
       0.43718742816804657 0.6955798472636605
000690 10 fa d8 f9 44 00 d2 bf a0 9f 53 17 63 7f e3 bf
       -0.281266445152057 -0.6093001800154418
0006a0 00 bc e2 60 4a b3 78 3f e0 ab 80 c3 0a 17 c8 bf
       0.006030359783991024 -0.18820318742777342
0006b0 e0 9e b9 e4 cf 77 d5 bf 90 25 06 67 27 b2 e3 3f
       -0.33543774925645486 0.6154973041713436
0006c0 18 78 ca 27 33 ba e2 3f a8 97 af fc 20 e0 e8 3f
       0.5852294709363859 0.777359479453243
0006d0 78 15 8e 4b 0c 1e e8 3f 20 a3 4f 34 aa 6c c9 3f
       0.7536679721530808 0.1986286883759698
0006e0 10 db e6 69 e8 c2 e2 3f 6c 8b 5e 8a 88 5a f8 3f
       0.5862924641031402 1.5221028714228977
0006f0 70 32 a5 c8 94 26 dc bf d0 9b 28 67 f7 16 d7 3f
       -0.4398548087527052 0.36077675890049665
000700 18 25 5d b6 36 02 e0 3f 08 c3 5d 54 68 e1 e6 3f
       0.5002702295106785 0.7150155685213528
000710 e0 e2 86 68 8a 4c d3 3f 18 f9 fa 95 e4 42 f8 3f
       0.301546670987177 1.5163312777145332
000720 40 65 3a 22 64 36 c2 3f 08 54 33 21 e0 fc e7 bf
       0.14228488608640966 -0.7496185921141896
000730 20 c8 f5 24 30 e6 c7 3f 00 46 77 86 d8 d6 ae 3f
       0.18671228222552916 0.06023289338521565
000740 70 5e e4 b9 e8 5c e0 3f b0 2f 80 59 b9 26 e2 3f
       0.5113414412216581 0.5672270534573638
000750 c8 09 0c 4a d3 08 e1 bf c0 8b ef 4e ac e2 c9 bf
       -0.5323273130637114 -0.2022300134113646
000760 48 0a 37 b1 da 21 e4 3f 24 4e ec fb 47 17 f5 3f
       0.6291326009016496 1.3181838837380235
000770 b0 e7 ca a4 b6 a1 ec 3f 08 0b f4 03 ea 05 ee 3f
       0.8947404116254258 0.9382219388211022
000780 80 b3 60 8b 3d 7b b3 3f c8 4d 99 66 0c 94 ec 3f
       0.07609924938942747 0.8930723194011359
000790 c0 00 43 c3 20 40 d6 3f f8 0c 91 a1 6b 54 e0 3f
       0.34766406124618854 0.5103052287671792
0007a0 a0 da 23 31 5c dd c4 bf 60 ec 41 ba 99 41 cc 3f
       -0.1630053749028848 0.22075196833233957
0007b0 98 e9 95 cf 69 a4 e5 3f 00 a8 dc 97 eb 85 8e 3f
       0.676319985809914 0.01490387017436845
0007c0 98 23 b0 5f 5b 97 f0 3f 00 54 77 36 1d 55 bc 3f
       1.0369523752035317 0.11067373828639404
0007d0 a0 ff 07 2f d1 d2 ca bf 30 8d c7 17 1a 3e eb 3f
       -0.20955862804839587 0.8513308014338801
0007e0 90 f1 7c 73 8d 0c ed 3f d0 6c a5 15 22 a1 ef 3f
       0.9077822929025832 0.9884195730950527
0007f0 90 4f 21 14 24 55 ea 3f 40 8d dd c2 61 b1 be bf
       0.8228931801954662 -0.11989413268525073
