Data-src/cs-a-1.92-phi-3.77/X-theta-0.45.npy (npy, 8128 bytes, 1 tensors)

array f8 [1000]
000000 00 48 9a 6b 24 47 8a 3f e0 33 ca 31 25 67 ca 3f
       0.012831005605480783 0.2062727444757959
000010 20 90 d0 7e b8 7a cf bf 14 39 ad 11 ca f8 f8 bf
       -0.2459326380932234 -1.560739583062575
000020 f8 7f 15 b1 0d 73 ea bf c8 21 05 31 d6 17 f1 bf
       -0.8265446146651803 -1.0683195032926154
000030 6c 47 a7 1b e0 9b f4 bf f0 5b df b6 1c 08 d7 bf
       -1.2880555229389428 -0.3598701272834992
000040 10 ed 88 bc 86 5f e2 bf 8c 32 da c6 30 26 f3 3f
       -0.5741609270402552 1.1968238608998574
000050 10 66 98 ea fc 4a d1 bf c0 3a 54 ce 0c 82 da bf
       -0.27020190152833923 -0.4141876234943247
000060 80 7a ae 24 e8 f7 aa 3f 60 0b cb 53 5c 3f f2 bf
       0.052672628858307924 -1.1404689095658895
000070 44 04 9f c7 75 b7 f1 bf 94 3c 7e 27 a2 0d fc 3f
       -1.107290057916786 1.7533284704875642
000080 18 a1 c6 b4 43 67 e8 bf 20 47 bb cf 7b ab d8 3f
       -0.7626055269984446 0.3854665306690652
000090 40 0a 66 91 73 88 d9 3f 80 4d 03 33 20 aa cf 3f
       0.3989533347995895 0.24737932673324892
0000a0 50 4e d5 be cd 82 e1 3f c0 4c 02 2a 1e 16 db bf
       0.5472172476970147 -0.4232249651187878
0000b0 f0 33 bf 9c 53 51 d2 3f 00 e2 b8 11 85 3f 83 3f
       0.2862137823802291 0.009398498156870438
0000c0 40 0d e3 0b 8a 71 e2 3f b0 1c 5a 72 48 78 ec bf
       0.5763597709814476 -0.8896829827725892
0000d0 f0 0c 58 0e 48 63 d7 bf 00 4a ce bd e8 fe 84 bf
       -0.36543465996528735 -0.010251825611509169
0000e0 00 e0 15 a3 2b 79 55 bf 40 07 91 24 7d 08 d6 3f
       -0.0013106275694934055 0.34426811762761034
0000f0 a8 5c a3 d1 4d 27 e4 bf 80 62 a0 f1 09 b2 b0 bf
       -0.6297978491301324 -0.0652166571529822
000100 70 89 bb 78 5f a1 e7 bf 20 e8 b7 40 8d bf e3 bf
       -0.7384488447244575 -0.6171327842741938
000110 48 58 44 83 de f0 e6 bf 28 9f fa 08 b6 cc f5 bf
       -0.7169029773529099 -1.3624782896749341
000120 00 b9 49 ff fb fb bd 3f a0 59 61 6a f1 fb d1 3f
       0.11712622625939062 0.281002382170664
000130 e0 c8 44 e5 3f 8f cd bf 28 ae a4 5c 8a 6b e0 bf
       -0.23093413061867007 -0.5131274995268926
000140 a8 8f d0 ac d6 81 ed bf 20 93 19 0e 2c a2 d0 bf
       -0.9220994353568033 -0.25989819886153676
000150 20 6d 9a ea 4b 75 e6 bf d8 44 49 eb 82 c0 ea bf
       -0.7018184263319291 -0.835999927085278
000160 88 12 34 67 46 c4 ee bf 00 3a fe b9 85 fd d2 bf
       -0.9614593520824011 -0.29672377742181766
000170 58 97 cf e2 9f 2d ee bf bc 74 ba 3c 4c ad fb bf
       -0.9430694036388827 -1.7298090336037566
000180 60 8c 34 52 39 17 db bf 10 70 62 28 aa 8b e5 bf
       -0.42329247501237965 -0.6732989109764294
000190 48 b9 c5 d6 ab 12 f5 bf 80 87 58 09 28 b1 da bf
       -1.3170584096474887 -0.41706276810338494
0001a0 08 dd 23 3f a8 0c f1 bf c0 66 13 d9 16 c4 b1 3f
       -1.0655901400003263 0.06939833450033017
0001b0 40 be d7 c6 84 bc c7 3f 00 62 27 f8 1c 86 c3 3f
       0.18544063290709012 0.1525303088844936
0001c0 c0 1d 04 6c b0 6b ed bf 80 a6 3a 20 96 b7 df bf
       -0.9193956479729692 -0.4955802263963065
0001d0 58 61 fb 4f c8 ca f1 bf d0 b0 53 a9 6d 16 ed bf
       -1.112007439069279 -0.9089878375212042
0001e0 50 1d b3 bf 3c 88 e0 bf 00 b2 18 eb d5 09 b2 bf
       -0.5166305297979452 -0.07046257962856117
0001f0 d0 5f 5a da 2d 6e e6 bf a0 30 71 7b b8 1f e8 bf
       -0.700949598761321 -0.753872147653528
000200 28 1c 2b ca 76 fa e0 bf 80 6b 34 2b 7c 73 af bf
       -0.5305742214776545 -0.06142795588876648
000210 d0 f2 e8 7a 89 55 f2 bf 40 19 f7 b5 9e 21 e4 bf
       -1.1458830643816107 -0.6291039995201473
000220 b0 e8 fa d4 4d 2f d1 bf a8 e1 c8 25 ab c9 ef bf
       -0.26851220892752803 -0.9933677423460283
000230 40 61 2c dd ca da d6 3f e0 a8 89 14 e4 ef c3 3f
       0.3571040305992206 0.1557583904535198
000240 80 7f 93 38 5c 6d c6 bf 70 cc 48 92 c0 54 d2 bf
       -0.17521240961559315 -0.2864228657301231
000250 e0 65 99 8d e0 fb e3 3f 60 79 38 ca 7f a2 c5 3f
       0.6244967237100205 0.1690215814023288
000260 40 b8 e9 d0 ac 83 b6 bf 98 b8 a8 a5 1e 54 e4 bf
       -0.0879467020074296 -0.6352685199288031
000270 00 70 f8 2b 32 8d b5 3f f8 b8 e1 20 3a 91 f5 bf
       0.08418572972772154 -1.3479558262293363
000280 30 56 8d e7 6c ba e4 bf 08 41 07 2c 67 57 ee 3f
       -0.647757007837475 0.9481693134239615
000290 f0 aa cc e4 a4 76 ea 3f 70 c1 e3 f5 d4 37 df bf
       0.826982924341193 -0.4877827073351204
0002a0 b0 09 ac fc a5 df df 3f e0 2a f2 73 4a c3 e3 bf
       0.4980254142284606 -0.6175892128533995
0002b0 30 b4 e9 1a 08 8c d6 3f c8 2d fc c4 15 5a e0 bf
       0.35229685428822943 -0.510996708618614
0002c0 70 9f 7a b0 62 ea e9 bf d0 bf 8d 12 c9 f4 db bf
       -0.8098615118842485 -0.4368155175388866
0002d0 40 b2 89 2f a6 69 cb bf a4 75 a4 0a 0f 57 f3 bf
       -0.21416165658173902 -1.2087545791358503
0002e0 14 9a a6 7c ec f8 f0 bf e0 f4 45 9e c0 7b c4 bf
       -1.0607724064990451 -0.16002662399470235
0002f0 80 44 33 c8 ac 87 a9 3f 98 ca a4 51 1b 2b ee 3f
       0.049863242567547594 0.9427620501140437
000300 20 12 bf d2 d1 06 d4 3f c0 5a 3e 2d d0 c3 d7 3f
       0.3129162366933844 0.3713264886695633
000310 38 90 21 2c fa aa e5 bf c0 e7 2b f8 c4 5b f0 3f
       -0.6771212446151429 1.0224046415519155
000320 c8 d1 59 1b c2 d3 ec 3f a0 64 b6 12 d0 10 c2 bf
       0.900849393291133 -0.1411380854959008
000330 80 37 a8 3a ed fe c8 bf c4 0f 94 2b 4e 0d fc bf
       -0.19527974475971277 -1.7532483770637421
000340 a0 35 84 31 62 3c cf 3f 90 1c a1 a2 cf 43 d7 bf
       0.24403026025576668 -0.3635138595750016
000350 68 d9 a6 8f 07 e2 eb bf 30 d9 f6 ee c0 f0 dc bf
       -0.8713414960573518 -0.45219443641998947
000360 48 b1 2e 7a f1 79 f0 bf e0 8c 15 5d 64 94 ea bf
       -1.0297713063001357 -0.8306142633486182
000370 80 aa 87 6a 0f c8 ad bf d0 6c 87 c1 24 9f d2 3f
       -0.05816696334280369 0.290963353150528
000380 70 2a 77 25 9a b9 ec bf 60 4b 22 c0 78 2a d3 bf
       -0.8976565105197789 -0.29946726573068894
000390 00 f7 59 b8 6b 80 d8 bf b4 d6 d6 8d 61 38 f0 bf
       -0.3828381824786078 -1.0137649098009378
0003a0 50 b8 ce 24 15 13 e9 bf c8 9e aa a0 28 86 f2 3f
       -0.7835794180771334 1.1577535892519553
0003b0 80 df 39 5f da f8 a7 bf 10 33 ef 72 17 97 f2 bf
       -0.046820472835803706 -1.1618875970481817
0003c0 68 5f 12 30 e8 38 eb bf 20 37 96 9d 1c 60 c5 bf
       -0.8506966532613491 -0.16699559874216963
0003d0 00 84 67 ca c6 95 79 bf 34 04 ee 87 28 c9 f3 bf
       -0.006246353650994685 -1.2366109189754413
0003e0 00 ad 3b 4b 7c 22 a0 bf 88 23 d1 7b 9f 58 e9 bf
       -0.031513103660325115 -0.7920682352351927
0003f0 e8 43 a2 25 b9 f3 e8 bf e8 66 55 98 ad 0f ee 3f
       -0.7797513709102732 0.939413831259313
000400 18 e8 cc 89 6a 5c f1 bf a0 fc 88 4c be 14 e0 bf
       -1.0850625403240937 -0.5025321478678002
000410 60 48 39 88 61 58 ca bf 80 16 40 33 90 ae d9 bf
       -0.20582217361021815 -0.4012794971934923
000420 40 0b 4a 65 ee f9 c9 3f c0 98 dc 4e da b5 bd bf
       0.20293979593051326 -0.11605610299429525
000430 6c 7f cd 00 61 95 f4 bf d0 d3 ee 34 61 88 f2 bf
       -1.2864694625240771 -1.158295828599183
000440 a0 83 e3 de b5 bf ca bf a0 14 dd ac 9d b2 d9 bf
       -0.20897553809393532 -0.4015268505211882
000450 b8 56 a6 37 07 4d ea 3f 80 36 4f c4 74 9a b8 bf
       0.8219028555783643 -0.0961068133612688
000460 80 fb cb f0 b5 af e4 bf 6c a7 6b b5 ac 8e f0 bf
       -0.646449060732138 -1.0348326765765377
000470 20 68 4f a0 59 56 d6 3f 98 d7 bf dc 38 63 ec bf
       0.349020391991532 -0.8871120749961277
000480 08 8f 76 05 69 60 f5 bf 60 d3 8f 5e e2 88 dc bf
       -1.3360376561549305 -0.44585475191643376
000490 c0 60 e9 c3 fe 14 dd bf 14 94 db 4d 52 30 f1 bf
       -0.4544064439010178 -1.074297241336585
0004a0 24 a2 58 12 73 76 f2 bf 00 89 1f 82 07 8b cf 3f
       -1.1539183346413973 0.24643033841773132
0004b0 08 e4 ef a1 23 77 f2 3f 40 cb fa 0b cb 0f b7 3f
       1.154086716238682 0.09008473436805975
0004c0 74 76 40 19 5c 93 f5 bf 44 63 ba e2 34 68 f5 bf
       -1.3484765039824227 -1.3379410606923594
0004d0 a0 6c e6 31 c5 ed ce 3f 80 e7 01 d6 fb 52 df 3f
       0.24163117348220897 0.48943992518581325
0004e0 70 4d ff 05 2e bf d7 3f 60 3f 88 ba 50 8f c2 3f
       0.3710436876837866 0.14499863727587137
0004f0 b8 43 29 5c 03 c6 f4 3f 10 f3 12 e3 d6 56 e1 bf
       1.2983430481001346 -0.5418505129851798
000500 50 fd 0a 3f 48 dd e0 bf 10 aa 8a c0 b6 a6 d2 3f
       -0.5270119887644942 0.2914254074372886
000510 b0 60 0f e9 ff 13 e2 bf a0 d3 b0 6b a0 2e e5 bf
       -0.564941363521049 -0.6619417289099268
000520 98 93 e9 a8 06 c5 00 40 c0 e3 97 7b 03 0b e9 3f
       2.096204108837309 0.7825944341594706
000530 70 97 a2 8d 8b 80 d9 3f b4 3b 28 ce c4 74 f3 3f
       0.39847077209048276 1.2160080006612874
000540 00 ed c5 5d 4d 44 a7 bf a8 8f 83 ca 3f 63 f3 bf
       -0.04544297952358001 -1.2117307577800407
000550 80 da eb ac 8c be a6 3f a8 16 24 13 08 d9 f5 bf
       0.04442252741676089 -1.3654862163252037
000560 a8 c7 9c 35 5a 3b f0 bf 18 c4 78 cf 04 bd f5 3f
       -1.0144903272853103 1.3586471657147339
000570 d8 ee 30 3b 20 e3 eb bf d0 f8 cf bf e3 f4 db bf
       -0.8714753299786606 -0.43682187778166526
000580 90 99 0b 24 e1 9d d7 bf 00 95 94 e9 14 06 ef 3f
       -0.36901119728136056 0.9694923936955604
000590 00 b9 7f d7 62 dc e3 bf c0 6f 7e 78 92 c3 e9 3f
       -0.6206526001895156 0.8051235535999623
0005a0 80 59 2e 69 58 79 bf 3f c0 cd b1 93 a5 0d b8 3f
       0.12294533317467504 0.09395823341201659
0005b0 28 71 86 03 a4 e0 eb 3f 00 c2 a7 26 19 58 a4 bf
       0.8711719578600752 -0.03973463627687934
0005c0 60 ac 80 d7 d0 95 e4 bf 80 75 f4 04 b1 27 a4 3f
       -0.6432880600963351 0.039365321974609735
0005d0 24 93 80 b2 3f 07 f0 bf a0 7d e9 15 ce 61 dc bf
       -1.0017697308296158 -0.4434695447907533
0005e0 40 53 44 95 7b a8 b2 bf a0 5e 93 81 0f 34 e8 bf
       -0.07288334268771468 -0.7563550501608525
0005f0 60 9a f3 a3 1c c7 e6 bf f8 32 db ba 6f d5 e6 bf
       -0.7118056490115343 -0.7135542535339416
000600 f0 b7 78 fb 9b 61 dd 3f 88 82 fb 98 21 6e e5 bf
       0.45908259923714834 -0.6696937549532587
000610 b8 e1 d3 96 e3 de e5 3f a8 bb dd 3a e3 a8 e5 bf
       0.6834581323483269 -0.6768661641816509
000620 c0 7d f3 ad 86 74 b2 bf c0 57 ac 20 31 26 d4 3f
       -0.07209054705480522 0.3148310488771777
000630 80 dd 4c 58 1e b7 b4 bf 68 95 69 08 51 25 f5 bf
       -0.08091916709678593 -1.3216104820833952
000640 50 5e ca 57 27 6b d6 bf 38 ea d1 c0 6a 9a e2 bf
       -0.35029014180461093 -0.5813497320189702
000650 04 3b 14 df ed 1a fc bf 80 bf 3c 9b bb 0d dd bf
       -1.7565745080971178 -0.45396318588154116
000660 b0 7a b6 db d6 69 ef bf 98 ef c1 aa ee fe f3 bf
       -0.9816698352113544 -1.2497393293587944
000670 80 db 1c 4c ff c1 c3 bf 60 4f 36 e6 9c 83 e0 bf
       -0.15435782638970963 -0.5160660263377217
000680 d0 5b 8b 50 b5 31 ec bf f0 95 22 db 30 0a e5 bf
       -0.8810679028637143 -0.6574939994795255
000690 60 e5 ca ca 71 07 e6 bf 28 84 7f 14 23 d4 e7 bf
       -0.6884087525169598 -0.7446456337312428
0006a0 10 9b 9e 73 87 7b e7 3f cc fb bd 50 c6 ca f2 bf
       0.733829236812058 -1.1745055345524973
0006b0 c0 ab b6 16 a0 35 d5 bf a0 54 06 1a 6c f0 ee bf
       -0.33139803140755575 -0.9668484218879208
0006c0 b0 77 27 e6 08 f8 d0 bf 60 2a 27 dd a6 0b e4 bf
       -0.265138840446407 -0.6264223403353064
0006d0 40 f2 f2 2e a0 2c bb bf c0 6b 94 36 02 9b e9 bf
       -0.10614968439308203 -0.8001719537745586
0006e0 c0 9b 32 12 06 2e b6 3f 20 17 77 04 e2 9f ea bf
       0.08663976616172331 -0.8320169532023307
0006f0 80 4c b7 e1 32 4e c4 3f d0 d3 38 59 25 cd dd bf
       0.1586364366654358 -0.46564611161312275
000700 00 8d f5 16 38 91 c3 bf e8 8d 01 1f 01 ac f2 3f
       -0.15286923523954243 1.166993256680934
000710 88 b7 96 e8 84 e7 e0 bf 00 bd 2f 40 60 98 aa bf
       -0.5282616179226673 -0.05194378646398867
000720 a8 f0 02 48 be 6c e4 bf 80 ce af c2 a3 e0 bb 3f
       -0.6382743269419011 0.10889647963613847
000730 00 09 ca 4f e1 73 dc 3f c0 9d 3f 2f 78 b6 df bf
       0.44457276145853086 -0.4955120526705876
000740 a0 c0 48 62 d9 bd c8 bf d8 a6 c8 e2 1b a8 e8 bf
       -0.1932937364485996 -0.7705211095210087
000750 c8 9d f5 d7 e1 51 e7 3f e8 20 dd 80 28 4d e9 bf
       0.7287453859288968 -0.7906687275763291
000760 c8 7d 24 0e d6 00 e1 3f 20 59 5d b2 ae 87 d7 bf
       0.531352069494397 -0.3676563970415305
000770 70 fd 69 c2 fe 60 eb bf 48 99 3f 93 cd 5f ee bf
       -0.8555902287625212 -0.9491947055765104
000780 70 01 99 cf d9 e3 d8 3f 6c d2 9e c8 a5 11 f5 bf
       0.38890691064081917 -1.3168084942564304
000790 28 8a 2b d6 de 8f eb bf ec 62 80 40 f2 2a f1 bf
       -0.8613123114594758 -1.0729849357214176
0007a0 c0 fb c6 bb 8c 42 c5 bf 40 37 91 a5 5b 5a ca bf
       -0.16609343689739653 -0.20588250717485757
0007b0 e0 42 92 ed ab c9 c6 bf 40 74 b1 c9 c0 74 e7 bf
       -0.1780295286194109 -0.7330020846671985
0007c0 98 6e 93 e7 05 65 e0 bf 08 02 1a 47 a4 28 e5 3f
       -0.5123319170920295 0.6612111462309835
0007d0 e8 ed c4 95 d0 3c e7 bf e0 d8 19 c0 73 1a d1 bf
       -0.7261736798458829 -0.26723951110706246
0007e0 80 7a c8 78 ad 03 d3 3f 38 fe c8 36 dd ec e6 bf
       0.2970994643709801 -0.7164140768072178
0007f0 30 51 8b 9a a7 8f d8 3f 98 1d b8 9c 24 7e f1 bf
       0.38376798717696925 -1.0932966348499118
