csqpt-data/cs-a-1.01-phi-2.51/X-theta-0.00.npy (npy, 8128 bytes, 1 tensors)

array f8 [1000]
0	0x3f8a47246b9a4800	0.012831005605480783
1	0xbfcf7ab87ed09020	-0.2459326380932234
2	0xbff8f8ca11ad3914	-1.560739583062575
3	0xbfea730db1157ff8	-0.8265446146651803
4	0xbff117d6310521c8	-1.0683195032926154
5	0xbff49be01ba7476c	-1.2880555229389428
6	0xbfd7081cb6df5bf0	-0.3598701272834992
7	0xbfe25f86bc88ed10	-0.5741609270402552
8	0xbfd14afcea986610	-0.27020190152833923
9	0xbfda820cce543ac0	-0.4141876234943247
10	0x3faaf7e824ae7a80	0.052672628858307924
11	0xbff23f5c53cb0b60	-1.1404689095658895
12	0xbff1b775c79f0444	-1.107290057916786
13	0xbfe86743b4c6a118	-0.7626055269984446
14	0x3fd9887391660a40	0.3989533347995895
15	0x3fcfaa2033034d80	0.24737932673324892
16	0xbfdb161e2a024cc0	-0.4232249651187878
17	0x3fd251539cbf33f0	0.2862137823802291
18	0x3f833f8511b8e200	0.009398498156870438
19	0x3fe2718a0be30d40	0.5763597709814476
20	0xbfec7848725a1cb0	-0.8896829827725892
21	0xbfd763480e580cf0	-0.36543465996528735
22	0xbf84fee8bdce4a00	-0.010251825611509169
23	0xbf55792ba315e000	-0.0013106275694934055
24	0x3fd6087d24910740	0.34426811762761034
25	0xbfe4274dd1a35ca8	-0.6297978491301324
26	0xbfe7a15f78bb8970	-0.7384488447244575
27	0xbfe3bf8d40b7e820	-0.6171327842741938
28	0xbfe6f0de83445848	-0.7169029773529099
29	0xbfe06b8a5ca4ae28	-0.5131274995268926
30	0xbfed81d6acd08fa8	-0.9220994353568033
31	0xbfd0a22c0e199320	-0.25989819886153676
32	0xbfe6754bea9a6d20	-0.7018184263319291
33	0xbfeac082eb4944d8	-0.835999927085278
34	0xbfeec44667341288	-0.9614593520824011
35	0xbfd2fd85b9fe3a00	-0.29672377742181766
36	0xbfee2d9fe2cf9758	-0.9430694036388827
37	0xbfdb173952348c60	-0.42329247501237965
38	0xbfe58baa28627010	-0.6732989109764294
39	0xbfdab12809588780	-0.41706276810338494
40	0xbff10ca83f23dd08	-1.0655901400003263
41	0x3fb1c416d91366c0	0.06939833450033017
42	0x3fc3861cf8276200	0.1525303088844936
43	0xbfed6bb06c041dc0	-0.9193956479729692
44	0xbfdfb796203aa680	-0.4955802263963065
45	0xbff1cac84ffb6158	-1.112007439069279
46	0xbfed166da953b0d0	-0.9089878375212042
47	0xbfe0883cbfb31d50	-0.5166305297979452
48	0xbfe66e2dda5a5fd0	-0.700949598761321
49	0xbfe81fb87b7130a0	-0.753872147653528
50	0xbfe0fa76ca2b1c28	-0.5305742214776545
51	0xbfaf737c2b346b80	-0.06142795588876648
52	0xbff255897ae8f2d0	-1.1458830643816107
53	0xbfe4219eb5f71940	-0.6291039995201473
54	0xbfd12f4dd4fae8b0	-0.26851220892752803
55	0xbfefc9ab25c8e1a8	-0.9933677423460283
56	0x3fc3efe41489a8e0	0.1557583904535198
57	0xbfc66d5c38937f80	-0.17521240961559315
58	0xbfd254c09248cc70	-0.2864228657301231
59	0xbfe4541ea5a8b898	-0.6352685199288031
60	0xbff5913a20e1b8f8	-1.3479558262293363
61	0xbfe4ba6ce78d5630	-0.647757007837475
62	0x3fea76a4e4ccaaf0	0.826982924341193
63	0xbfdf37d4f5e3c170	-0.4877827073351204
64	0xbfe3c34a73f22ae0	-0.6175892128533995
65	0xbfe05a15c4fc2dc8	-0.510996708618614
66	0xbfe9ea62b07a9f70	-0.8098615118842485
67	0xbfdbf4c9128dbfd0	-0.4368155175388866
68	0xbfcb69a62f89b240	-0.21416165658173902
69	0xbff0f8ec7ca69a14	-1.0607724064990451
70	0xbfc47bc09e45f4e0	-0.16002662399470235
71	0x3fa987acc8334480	0.049863242567547594
72	0x3fd406d1d2bf1220	0.3129162366933844
73	0xbfe5aafa2c219038	-0.6771212446151429
74	0x3fecd3c21b59d1c8	0.900849393291133
75	0xbfc8feed3aa83780	-0.19527974475971277
76	0x3fcf3c62318435a0	0.24403026025576668
77	0xbfd743cfa2a11c90	-0.3635138595750016
78	0xbfebe2078fa6d968	-0.8713414960573518
79	0xbfdcf0c0eef6d930	-0.45219443641998947
80	0xbff079f17a2eb148	-1.0297713063001357
81	0xbfea94645d158ce0	-0.8306142633486182
82	0xbfadc80f6a87aa80	-0.05816696334280369
83	0x3fd29f24c1876cd0	0.290963353150528
84	0xbfecb99a25772a70	-0.8976565105197789
85	0xbfd8806bb859f700	-0.3828381824786078
86	0xbff038618dd6d6b4	-1.0137649098009378
87	0xbfe9131524ceb850	-0.7835794180771334
88	0xbfa7f8da5f39df80	-0.046820472835803706
89	0xbfeb38e830125f68	-0.8506966532613491
90	0xbfc5601c9d963720	-0.16699559874216963
91	0xbf7995c6ca678400	-0.006246353650994685
92	0xbff3c92887ee0434	-1.2366109189754413
93	0xbfa0227c4b3bad00	-0.031513103660325115
94	0xbfe9589f7bd12388	-0.7920682352351927
95	0xbfe8f3b925a243e8	-0.7797513709102732
96	0xbff15c6a89cce818	-1.0850625403240937
97	0xbfe014be4c88fca0	-0.5025321478678002
98	0xbfca586188394860	-0.20582217361021815
99	0xbfd9ae9033401680	-0.4012794971934923
100	0xbfbdb5da4edc98c0	-0.11605610299429525
101	0xbff4956100cd7f6c	-1.2864694625240771
102	0xbff2886134eed3d0	-1.158295828599183
103	0xbfcabfb5dee383a0	-0.20897553809393532
104	0xbfd9b29dacdd14a0	-0.4015268505211882
105	0xbfe4afb5f0cbfb80	-0.646449060732138
106	0xbff08eacb56ba76c	-1.0348326765765377
107	0xbfec6338dcbfd798	-0.8871120749961277
108	0xbff5606905768f08	-1.3360376561549305
109	0xbfdc88e25e8fd360	-0.44585475191643376
110	0xbfdd14fec3e960c0	-0.4544064439010178
111	0xbff130524ddb9414	-1.074297241336585
112	0xbff276731258a224	-1.1539183346413973
113	0x3fb70fcb0bfacb40	0.09008473436805975
114	0xbff56834e2ba6344	-1.3379410606923594
115	0x3fceedc531e66ca0	0.24163117348220897
116	0x3fd7bf2e05ff4d70	0.3710436876837866
117	0xbfe156d6e312f310	-0.5418505129851798
118	0xbfe0dd483f0afd50	-0.5270119887644942
119	0x3fd2a6b6c08aaa10	0.2914254074372886
120	0xbfe213ffe90f60b0	-0.564941363521049
121	0xbfe52ea06bb0d3a0	-0.6619417289099268
122	0x3fd9808b8da29770	0.39847077209048276
123	0xbfa7444d5dc5ed00	-0.04544297952358001
124	0xbff3633fca838fa8	-1.2117307577800407
125	0x3fa6be8cacebda80	0.04442252741676089
126	0xbff03b5a359cc7a8	-1.0144903272853103
127	0xbfebe3203b30eed8	-0.8714753299786606
128	0xbfdbf4e3bfcff8d0	-0.43682187778166526
129	0xbfd79de1240b9990	-0.36901119728136056
130	0x3fef0614e9949500	0.9694923936955604
131	0xbfe3dc62d77fb900	-0.6206526001895156
132	0x3fe9c392787e6fc0	0.8051235535999623
133	0x3fbf7958692e5980	0.12294533317467504
134	0x3fb80da593b1cdc0	0.09395823341201659
135	0xbfa4581926a7c200	-0.03973463627687934
136	0xbfe495d0d780ac60	-0.6432880600963351
137	0xbff0073fb2809324	-1.0017697308296158
138	0xbfdc61ce15e97da0	-0.4434695447907533
139	0xbfb2a87b95445340	-0.07288334268771468
140	0xbfe8340f81935ea0	-0.7563550501608525
141	0xbfe6d56fbadb32f8	-0.7135542535339416
142	0x3fdd619bfb78b7f0	0.45908259923714834
143	0xbfe56e2198fb8288	-0.6696937549532587
144	0x3fe5dee396d3e1b8	0.6834581323483269
145	0xbfe5a8e33addbba8	-0.6768661641816509
146	0xbfb27486adf37dc0	-0.07209054705480522
147	0x3fd4263120ac57c0	0.3148310488771777
148	0xbff5255108699568	-1.3216104820833952
149	0xbfd66b2757ca5e50	-0.35029014180461093
150	0xbfe29a6ac0d1ea38	-0.5813497320189702
151	0xbfdd0dbb9b3cbf80	-0.45396318588154116
152	0xbfef69d6dbb67ab0	-0.9816698352113544
153	0xbff3feeeaac1ef98	-1.2497393293587944
154	0xbfc3c1ff4c1cdb80	-0.15435782638970963
155	0xbfe0839ce6364f60	-0.5160660263377217
156	0xbfec31b5508b5bd0	-0.8810679028637143
157	0xbfe50a30db2295f0	-0.6574939994795255
158	0xbfe60771cacae560	-0.6884087525169598
159	0xbfe7d423147f8428	-0.7446456337312428
160	0xbff2cac650bdfbcc	-1.1745055345524973
161	0xbfd535a016b6abc0	-0.33139803140755575
162	0xbfeef06c1a0654a0	-0.9668484218879208
163	0xbfd0f808e62777b0	-0.265138840446407
164	0xbfe40ba6dd272a60	-0.6264223403353064
165	0xbfe99b0236946bc0	-0.8001719537745586
166	0xbfea9fe204771720	-0.8320169532023307
167	0x3fc44e32e1b74c80	0.1586364366654358
168	0xbfddcd255938d3d0	-0.46564611161312275
169	0xbfc3913816f58d00	-0.15286923523954243
170	0xbfe0e784e896b788	-0.5282616179226673
171	0xbfe46cbe4802f0a8	-0.6382743269419011
172	0x3fbbe0a3c2afce80	0.10889647963613847
173	0xbfdfb6782f3f9dc0	-0.4955120526705876
174	0xbfc8bdd96248c0a0	-0.1932937364485996
175	0xbfe8a81be2c8a6d8	-0.7705211095210087
176	0xbfd787aeb25d5920	-0.3676563970415305
177	0xbfee5fcd933f9948	-0.9491947055765104
178	0x3fd8e3d9cf990170	0.38890691064081917
179	0xbfeb8fded62b8a28	-0.8613123114594758
180	0xbfc5428cbbc6fbc0	-0.16609343689739653
181	0xbfca5a5ba5913740	-0.20588250717485757
182	0xbfc6c9abed9242e0	-0.1780295286194109
183	0xbfe774c0c9b17440	-0.7330020846671985
184	0xbfe06505e7936e98	-0.5123319170920295
185	0xbfe73cd095c4ede8	-0.7261736798458829
186	0xbfd11a73c019d8e0	-0.26723951110706246
187	0xbfe6ecdd36c8fe38	-0.7164140768072178
188	0xbff17e249cb81d98	-1.0932966348499118
189	0xbfe2edf199fdc3f8	-0.5915458686487218
190	0xbfd0c42ff45cfac0	-0.2619743238791834
191	0xbfeeb8fc05d5f0d8	-0.9600811113337171
192	0xbff1c918a677a5f0	-1.1115957739478937
193	0x3fdae29f071e6d30	0.4200818604965262
194	0xbfe9ef5a0359bf88	-0.8104677262726776
195	0xbfefef30a6c8fba8	-0.9979480035325325
196	0xbff1981390cb5890	-1.0996280342128877
197	0xbfcc65a0eafa1420	-0.2218514582965847
198	0xbfeb701a5f320d68	-0.8574344500815814
199	0xbfe3122f0e364e08	-0.5959697034435871
200	0xbfa468f3736fa780	-0.039863212434126716
201	0xbfd26888c8bec9f0	-0.2876302681353584
202	0xbfeb5d168a3d1b68	-0.8551132869696234
203	0xbff0a3d5186f9fe0	-1.0399981455357121
204	0xbfd20044f9d8fa10	-0.281266445152057
205	0xbfe37f6317539fa0	-0.6093001800154418
206	0xbfcdd453d32c5140	-0.2330422192686772
207	0xbfede26f2b118c30	-0.9338908997709776
208	0xbfd6f653a9f7d960	-0.3587845954747504
209	0xbfeec6ac56478cc8	-0.961752098574288
210	0xbff1b83013cf95e0	-1.107467725168469
211	0x3f78b34a60e2bc00	0.006030359783991024
212	0xbfe719659ccf2e00	-0.7218502104455524
213	0xbffb0993a8ad6a84	-1.689838084121818
214	0xbfc8170ac380abe0	-0.18820318742777342
215	0xbff105b798b8f8f4	-1.0638957944607315
216	0xbfeb103b9da4e9c8	-0.8457315520275239
217	0xbfd577cfe4b99ee0	-0.33543774925645486
218	0xbff83efc5a6c5d0c	-1.5153773815307572
219	0xbfdc2694c8a53270	-0.4398548087527052
220	0xbfd4c23206d2b810	-0.32435274759598176
221	0x3fc23664223a6540	0.14228488608640966
222	0xbff7914756ad8fb4	-1.4729684244020804
223	0xbfe7fce021335408	-0.7496185921141896
224	0x3faed6d886774600	0.06023289338521565
225	0xbfea5d5abc2cf820	-0.8238958049112206
226	0xbfe108d34a0c09c8	-0.5323273130637114
227	0xbfc9e2ac4eef8bc0	-0.2022300134113646
228	0xbfea31e1d0c4adf8	-0.8185891225343189
229	0xbfe2f3bc0d7e10d0	-0.5922527564548776
230	0x3fb37b3d8b60b380	0.07609924938942747
231	0xbfe17a98d8eda6b0	-0.5462154614335386
232	0xbff2127fa65cb9f8	-1.1295162676357204
233	0xbfe8716a4347ed48	-0.7638446153718315
234	0xbfd297f08a975ca0	-0.29052365812590075
235	0xbfd13df0c7badb40	-0.2694055510032065
236	0xbfdcd572292fd6c0	-0.4505277063575299
237	0xbfc4dd5c3123daa0	-0.1630053749028848
238	0x3fcc4199ba41ec60	0.22075196833233957
239	0x3fe5a469cf95e998	0.676319985809914
240	0xbfecbd4b3b363d58	-0.8981071621400742
241	0xbfda9d7d738bba10	-0.41586242946405694
242	0x3f8e85eb97dca800	0.01490387017436845
243	0xbff4c2a382c2f9f8	-1.2975192172885937
244	0xbfda0bd23260f770	-0.4069715015392523
245	0x3fbc551d36775400	0.11067373828639404
246	0xbfcad2d12f07ffa0	-0.20955862804839587
247	0xbffb618fb39b736c	-1.7113186851413174
248	0xbfeb155682454d38	-0.8463547272062106
249	0xbfbeb161c2dd8d40	-0.11989413268525073
250	0xbfdc1777d9701290	-0.4389323829093792
251	0xbfea81327eaafb28	-0.82827114810775
252	0xbff00b85a9656b58	-1.0028130166089877
253	0xbfe42ea5bcd43368	-0.6306942642273556
254	0xbfe4d50a403f7558	-0.651005864605092
255	0xbfe29a5616a5ddd0	-0.581339878305636
